model_save/Winter/best/LSTM_Winter.pt (torch, 211248 bytes, 9 tensors)

weight_ih_l0 f4 [256, 5]
0	0x3d797df2	0.060911126
1	0x3de34dde	0.11098836
2	0xbd46fdc6	-0.04858186
3	0x3d8089d9	0.06276292
4	0xbcbc347c	-0.022974245
5	0x3e0046bf	0.12526987
6	0x3d3085b1	0.043096248
7	0xbb6d43ca	-0.0036203736
8	0x3e4c6f79	0.19964398
9	0xbde66c2b	-0.112511
10	0x3e2e6c31	0.17033459
11	0x3dc57867	0.096421055
12	0x3d80b4b1	0.06284464
13	0x3da77ebd	0.0817847
14	0x3d52eed2	0.051497288
15	0xbad93fe2	-0.0016574825
16	0x3d98376e	0.074324474
17	0x3d77760d	0.060415316
18	0xba7e1857	-0.0009692958
19	0x3c9f35e0	0.01943487
20	0xbd2cc4c0	-0.042179823
21	0xbd29242d	-0.041294266
22	0xbce09af1	-0.027417632
23	0x3defa3a6	0.11701135
24	0xbe132529	-0.14369644
25	0xbdec8a88	-0.1154986
26	0xbdcc1c4b	-0.09966334
27	0xbd379793	-0.044822287
28	0xbd61c449	-0.055118833
29	0xbe31adaf	-0.17351411
30	0x3e1ddc67	0.15416108
31	0xbe0d572b	-0.13802783
32	0x3da6cd16	0.08144586
33	0x3d37c39b	0.04486428
34	0x3cc898b8	0.024486884
35	0x3d7c4429	0.06158844
36	0xbc5fa4ee	-0.013650162
37	0x3da86608	0.08222586
38	0x3b78864e	0.0037921849
39	0xbd050d08	-0.03248313
40	0x3dd2aa1c	0.10286352
41	0x3b1f6410	0.0024321117
42	0x3ce3df06	0.027816307
43	0x3e3f5712	0.18685558
44	0x3da58c9b	0.08083459
45	0xbe065189	-0.1311704
46	0x3e00ec87	0.12590228
47	0x3c453307	0.012036092
48	0xbce4217e	-0.027848002
49	0xbdec830c	-0.11548433
50	0xbc9a0e4b	-0.018805644
51	0x3c482785	0.012216453
52	0xbe159e7f	-0.14611243
53	0x3e6531bd	0.22382255
54	0x3df76d13	0.12081351
55	0xbac5569d	-0.001505572
56	0xbd3c2114	-0.045929983
57	0x3cd9d5d8	0.026591226
58	0x3d4dac4c	0.050213143
59	0xbde3fb1d	-0.111318804
60	0x3cd43bc3	0.025907403
61	0xbdbdcf23	-0.09268024
62	0xbc299e44	-0.010352675
63	0x3c8cda7c	0.017194025
64	0x3d23c4b9	0.03998253
65	0x3d7be746	0.061499856
66	0x3e0439aa	0.12912622
67	0xbd91b02e	-0.07113682
68	0x3c0f718d	0.0087551
69	0xbd80f161	-0.062960394
70	0x3df77d8b	0.12084492
71	0x3d81a7bc	0.06330821
72	0x3da9278c	0.08259496
73	0xbda0e5a2	-0.07856299
74	0xbd92d820	-0.07170129
75	0x3bba27e7	0.0056810263
76	0xbd37f154	-0.044907883
77	0x3d220b6e	0.03956168
78	0x3e161e06	0.1465989
79	0x3c915c61	0.017744245
80	0xbdaadd58	-0.08342999
81	0xbd86260c	-0.065502256
82	0x3d48a996	0.048989855
83	0xbd452e35	-0.04813977
84	0x3d7b65f2	0.06137652
85	0xbd56f712	-0.05248172
86	0x3cbef4a1	0.023310008
87	0xbdb1f3c5	-0.086890735
88	0xbd96cda1	-0.07363439
89	0x3d201b56	0.03908857
90	0x3db73437	0.08945506
91	0x3e0d8369	0.1381966
92	0xbc81c4bb	-0.015840879
93	0x3e01509c	0.12628406
94	0x3d165540	0.036702394
95	0xbcc83e2d	-0.02444371
96	0x3e19baf7	0.15012728
97	0xbd7f73ee	-0.06236642
98	0xbc414110	-0.011795297
99	0xbe8371c2	-0.25672728
100	0xbaf5f117	-0.0018763867
101	0x3dd89789	0.10575778
102	0xbb1adde0	-0.0023630783
103	0x3b8be924	0.004269736
104	0x3e1740bc	0.14770788
105	0xbdcc32a5	-0.09970597
106	0xbe0ae1b4	-0.13562661
107	0xbd9cd7a3	-0.07658317
108	0xbdeefc89	-0.11669261
109	0xbd02612c	-0.03183095
110	0x3e4618d5	0.1934541
111	0x3d28f1ba	0.041246153
112	0x3cf9bc5b	0.030485323
113	0xbd58993e	-0.05288052
114	0xbdbd0b7b	-0.09230705
115	0x3d2e25a7	0.042516377
116	0x3daf3578	0.0855512
117	0xbe109e0a	-0.14122787
118	0x3b4e8ae3	0.0031515888
119	0xbd2f5aa1	-0.04281104
120	0xbc4de284	-0.012566213
121	0x3d52b9a9	0.05144659
122	0xbdd8ff28	-0.10595542
123	0xbdf737cf	-0.120711915
124	0xbd8435a6	-0.06455545
125	0x3d4c63b1	0.04989976
126	0xbd4ec20a	-0.05047802
127	0xbd7aa91d	-0.061196435
128	0x3e6cd818	0.23129308
129	0xbd0ef35c	-0.034900054
130	0x3db1ef9d	0.08688281
131	0xbba9caa0	-0.0051816255
132	0xbdcaf607	-0.09910207
133	0x3dde9601	0.10868455
134	0xbc31631f	-0.010826855
135	0xbc6a4f67	-0.014301158
136	0xbde41cb4	-0.11138287
137	0xbdfc041f	-0.123054735
138	0x3d6ecbe1	0.058299903
139	0xbe1f0ae2	-0.15531495
140	0x3d9bb458	0.07602757
141	0xbd9ea48e	-0.0774623
142	0x3d23ddf8	0.040006608
143	0xbcd0af81	-0.025474312
144	0x3caea503	0.021318918
145	0x3e0478cf	0.1293671
146	0x3e23e859	0.16006602
147	0x3e059bea	0.13047758
148	0x3e6e0e88	0.2324773
149	0x3d867ee3	0.065671705
150	0x3d735455	0.059406597
151	0xbd8f8f32	-0.07009734
152	0x3d72f0c1	0.059311632
153	0xbd9377dd	-0.072005965
154	0x3e8c7809	0.2743533
155	0xbdcb7ce0	-0.099359274
156	0x3d13e98e	0.036111407
157	0x3d809c7a	0.062798455
158	0x3d0caad5	0.034342606
159	0x3bd0f7a3	0.006377177
160	0x3dd73835	0.105087675
161	0xba153ded	-0.00056931266
162	0x3cc0f2d5	0.023553291
163	0xbdf215e7	-0.11820584
164	0x3d056825	0.032570023
165	0x3cedf072	0.029045317
166	0xbd4d01f2	-0.050050683
167	0x3da0759f	0.078349344
168	0x3d8d8a9d	0.06911204
169	0xbbb53ac4	-0.005530687
170	0xbdf4ee52	-0.119595185
171	0x3d24ddbc	0.040250525
172	0x3d9c936e	0.076453075
173	0xbdc1822c	-0.094486564
174	0xbd142ac1	-0.036173586
175	0xbda886a2	-0.08228804
176	0xbe199657	-0.14998756
177	0x3ccfffea	0.025390584
178	0x3d8c5e73	0.06853952
179	0xbe253b2d	-0.16135855
180	0x3bdeae46	0.0067956774
181	0x3c8d884a	0.017276902
182	0xbc0ce908	-0.008600481
183	0xbd16c50d	-0.036809016
184	0x3d9c8353	0.076422356
185	0x3e48b6aa	0.19600931
186	0x3da18ea5	0.078885354
187	0xbd3991eb	-0.045305174
188	0x3e0b69fa	0.13614646
189	0x3dfa30be	0.12216328
190	0xbd46a729	-0.04849926
191	0xbe0b0048	-0.13574326
192	0x3e1ca132	0.15295866
193	0x3e0a3fc4	0.13500887
194	0xbd7c9500	-0.061665535
195	0x3b959b92	0.0045656646
196	0xbc9aab69	-0.018880563
197	0x3ce81e38	0.028334722
198	0x3dd1d9cd	0.1024662
199	0x3de254cb	0.11051329
200	0xbdcab925	-0.09898595
201	0xbd903c9b	-0.070428096
202	0x3df09014	0.11746231
203	0x3dd65caa	0.10466893
204	0x3d10b2ac	0.035326645
205	0x3ba11342	0.004915626
206	0xbd7fa4df	-0.062413093
207	0xbdbfb8d5	-0.09361426
208	0x3d3fe39e	0.046847932
209	0x3d52d3de	0.051471584
210	0x3e51c261	0.20484306
211	0x3dc954ff	0.09830665
212	0xbe1c43a8	-0.15260184
213	0x3d6ba8c4	0.057533994
214	0xbd4cee0f	-0.050031718
215	0x3e6ed955	0.23325093
216	0x3d885f53	0.06658807
217	0xbd852264	-0.065007
218	0x3e2ba7cd	0.1676323
219	0xbccbc32f	-0.024873344
220	0xbd1e09cc	-0.03858356
221	0x3dbc0088	0.09179789
222	0xbd956118	-0.0729391
223	0x3c8740ae	0.016510334
224	0xbd8bb77c	-0.06822106
225	0x3e37fa90	0.17966676
226	0x3d0f9129	0.035050545
227	0x3dfba2fe	0.12286948
228	0x3c9c6167	0.019089414
229	0xbdc959da	-0.09831591
230	0xbdf4d810	-0.11955273
231	0x3da49049	0.08035333
232	0x3e105076	0.14093193
233	0x3dd03fa1	0.10168386
234	0x3dbf343e	0.09336136
235	0x3cab5626	0.020915102
236	0xbd000fdc	-0.031265125
237	0xbdb37d73	-0.08764162
238	0xbdc46fab	-0.095916115
239	0xbd84d4c2	-0.06485893
240	0x3e058e74	0.13042623
241	0xbca97c67	-0.020689202
242	0xbd4ff88e	-0.05077415
243	0xba5e1c7d	-0.0008472873
244	0xbcdcdff9	-0.026962267
245	0xbd7b9942	-0.061425455
246	0xbdc4b6fd	-0.09605215
247	0x3d0c1f79	0.034209702
248	0xbca9d366	-0.020730685
249	0x3dee3a7b	0.11632248
250	0x3d6045eb	0.05475418
251	0xbd221904	-0.039574638
252	0xbd2db12c	-0.042405292
253	0x3cfb7222	0.030694071
254	0xbcc90a4d	-0.024541045
255	0xbd150f9e	-0.036391847

weight_hh_l0 f4 [256, 64]
0	0xbd8035ab	-0.06260236
1	0xbd3aea82	-0.0456338
2	0x3c73fd38	0.014891915
3	0x3ce8b801	0.028408052
4	0xbdddcb39	-0.10829777
5	0x3d838e13	0.06423583
6	0x3dad67b6	0.08467047
7	0xbdc70e97	-0.0971958
8	0x3db56695	0.088574566
9	0xbcc2c992	-0.023777757
10	0x3df07581	0.11741162
11	0x3d8310ce	0.063996896
12	0x3e350f62	0.1768165
13	0xbdebfce0	-0.115228415
14	0x3d5008fe	0.050789826
15	0x3dde0cd8	0.108422935
16	0xbd984274	-0.0743455
17	0xbe2ea341	-0.17054464
18	0x3cfad509	0.030619161
19	0x3d1a5985	0.03768303
20	0xbdb1a9c6	-0.0867496
21	0xbd0d4123	-0.034485947
22	0x3d85e7d8	0.06538361
23	0x3c7437c0	0.01490587
24	0xbcc38816	-0.023868602
25	0x3db7cf8b	0.089751326
26	0x3baf703e	0.0053539565
27	0xbd5823a2	-0.052768357
28	0x3dda83af	0.10669648
29	0xbcad88e0	-0.021183431
30	0x3c9c0708	0.019046322
31	0x3e03881f	0.12844895
32	0x3c523bd5	0.012831648
33	0xbc3a75af	-0.011380597
34	0x3dac1836	0.08403055
35	0xbd7c1310	-0.061541617
36	0xbdad99e6	-0.084766194
37	0x3d24a3d6	0.04019531
38	0xbde8d426	-0.11368589
39	0x3da6b078	0.081391275
40	0xbe104eeb	-0.14092605
41	0x3d9ae56b	0.07563289
42	0x3d007c79	0.031368706
43	0x3d458365	0.04822101
44	0xbda1029f	-0.07861828
45	0xbe0c5a28	-0.13706267
46	0x3c5a9a97	0.013342521
47	0x3d6f5231	0.058427993
48	0xbdc88c8f	-0.097924344
49	0x3cddd50e	0.027079131
50	0x3bb8a8b9	0.0056353477
51	0x3d27ca9a	0.0409647
52	0x3e6deaa4	0.2323404
53	0x3df782b5	0.12085477
54	0xbdbd4ca9	-0.092431374
55	0x3dbc5eff	0.091978066
56	0x3bbe2cba	0.0058036717
57	0x3d2ea0fa	0.042633988
58	0x3d683bb1	0.05669755
59	0xbda7849b	-0.08179589
60	0xbc844f72	-0.016151164
61	0xbd2af579	-0.041738007
62	0xbcb424ad	-0.021990145
63	0x3da0efe0	0.078582525
64	0x3d3b57b2	0.04573793
65	0xbdb2ec4b	-0.087364756
66	0x3c1bd495	0.009511133
67	0x3e2f2418	0.17103612
68	0xbdafda8c	-0.085866064
69	0xbcd6b5c3	-0.026209718
70	0x3cee2c6d	0.029073918
71	0xbd8feb23	-0.07027271
72	0x3e032763	0.12807994
73	0xbdef3567	-0.116801076
74	0x3e0f40cd	0.13989563
75	0x3c70267f	0.014657616
76	0xbcbafd86	-0.022825968
77	0xbcdc14e9	-0.02686544
78	0xbd6d59fb	-0.05794714
79	0xbb89e472	-0.004208141
80	0xbd891027	-0.06692534
81	0xbdb2022a	-0.08691819
82	0xbdd0997c	-0.10185525
83	0x3d2e3716	0.042533003
84	0x3dfced0c	0.123499006
85	0xbe23fa15	-0.16013367
86	0x3d384d71	0.04499573
87	0xbdaaa87a	-0.083329156
88	0x3e1841db	0.14868872
89	0x3deae620	0.11469674
90	0xbd03cdf5	-0.032178838
91	0x3e54859c	0.20754093
92	0x3be3e9ed	0.0069553764
93	0xbe387623	-0.18013816
94	0x3cf60676	0.030032378
95	0x3cfcad37	0.030844314
96	0x3d627922	0.055291303
97	0x3cb435c9	0.021998303
98	0x3e04db93	0.12974386
99	0x3e07b05f	0.13250874
100	0x3d389e3a	0.04507277
101	0xbd079d97	-0.033109274
102	0x3da61c3d	0.08110855
103	0x3c98502b	0.018592915
104	0xbca2a6a8	-0.019854859
105	0x3dd4325f	0.1036117
106	0xbd673ae6	-0.056452654
107	0x3df8d0bc	0.12149188
108	0x3c87e16d	0.016586984
109	0xbe1f4e07	-0.15557109
110	0xbe0791c7	-0.13239203
111	0xbd19f964	-0.037591353
112	0x3ddbefae	0.10739075
113	0xbd9183c8	-0.071052134
114	0x3e604a2d	0.21903296
115	0x3dbfbf6a	0.09362681
116	0x3dfda35e	0.123846754
117	0x3d77ae2d	0.06046884
118	0xbb791882	-0.0038008993
119	0xbd88f499	-0.06687278
120	0xbe06b337	-0.13154303
121	0xbd08ea11	-0.033426348
122	0xbe292e1d	-0.16521497
123	0xbd6c0700	-0.057623863
124	0xbdb6c442	-0.08924152
125	0xbd74d1d3	-0.059770416
126	0xbd17c5de	-0.037053935
127	0x3dc6d890	0.09709275
128	0xbd9e1b94	-0.07720104
129	0xbdae989c	-0.08525202
130	0xbcb24d8f	-0.021765498
131	0x3ddb84b7	0.10718673
132	0xbcccb2a6	-0.02498753
133	0xbcb62989	-0.022236602
134	0xbd945aac	-0.07243857
135	0xbdafa2dc	-0.08575985
136	0xbb06d38a	-0.0020572864
137	0xbd558f8d	-0.052138854
138	0x3d961aa8	0.07329303
139	0x3e09393b	0.13400738
140	0xbc3dd0c9	-0.011585423
141	0xbc5b84b5	-0.013398339
142	0xbc414b19	-0.01179769
143	0xbdbee326	-0.09320669
144	0xbc964911	-0.018345388
145	0xbe124a23	-0.14286093
146	0x3cd54e54	0.026038326
147	0xbd8ec3f7	-0.06970971
148	0x3d01e317	0.03171071
149	0xbcbf14ca	-0.023325343
150	0x3e658a02	0.22415927
151	0x3d691e3b	0.056913596
152	0x3cbbd04e	0.022926476
153	0x3e3434f2	0.17598322
154	0xbd85d598	-0.065348804
155	0x3d9638bf	0.07335042
156	0x3d0822d8	0.033236355
157	0xbcbb1976	-0.02283929
158	0xbe270e6a	-0.16314092
159	0xbd169311	-0.036761347
160	0xbdc1751b	-0.09446164
161	0xbd9c0296	-0.07617681
162	0x3d323a26	0.043512486
163	0xbe021ad8	-0.12705553
164	0xbdd64769	-0.10462839
165	0x3cb36d90	0.02190283
166	0x3dc68bd7	0.09694641
167	0x3e14b42c	0.14521855
168	0xbd7dc973	-0.061959695
169	0x3c7864f2	0.015160786
170	0x3dd9e2eb	0.10638984
171	0x3c24acdd	0.010050979
172	0x3da524a0	0.08063626
173	0x3d976e75	0.07394115
174	0xbd41304b	-0.047165196
175	0xbda4b79d	-0.08042834
176	0x3dbb4477	0.09143918
177	0x3d7368ad	0.059426
178	0x3e2c976d	0.1685464
179	0xbc7c2402	-0.015389444
180	0xbdde0d5d	-0.108423926
181	0x3d5981ba	0.053102233
182	0x3de33a53	0.11095109
183	0xbd48753d	-0.048939932
184	0xbdc32acd	-0.09529648
185	0x3b508b1c	0.0031821197
186	0x3d32be4a	0.043638505
187	0xbde62427	-0.11237364
188	0x3d943e2f	0.07238423
189	0x3e26c120	0.16284609
190	0xbcfabcec	-0.030607663
191	0x3dc17e28	0.094478905
192	0x3d30480f	0.04303747
193	0x3da9abf3	0.0828475
194	0xbe038005	-0.12841804
195	0x3d8050ed	0.06265435
196	0xbd47432d	-0.04864805
197	0x3d4974c3	0.04918362
198	0x3d386f07	0.04502776
199	0xbdab15a6	-0.083537385
200	0x3c5559ab	0.013021867
201	0x3c262a86	0.010141974
202	0xbd7e0e29	-0.062025223
203	0xbd411137	-0.047135558
204	0xbd36d89f	-0.04464018
205	0xbdb87713	-0.090070866
206	0x3c8828b6	0.016620975
207	0x3d5397e4	0.051658526
208	0xbcff1b2e	-0.03114089
209	0x3d97de96	0.07415502
210	0xbd9406d7	-0.07227867
211	0xbe09f565	-0.13472517
212	0x3c19a62d	0.009377998
213	0xbe0641e7	-0.13111077
214	0xbd7c8627	-0.061651375
215	0xbd862b61	-0.065512426
216	0xbd4a05d5	-0.049321968
217	0x3c10285a	0.008798683
218	0x3d2edbd4	0.042690113
219	0x3e1fbb8f	0.15598892
220	0x3e03c80f	0.12869285
221	0xbd89d2b8	-0.067296445
222	0x3d0c8eb8	0.034315795
223	0xbdc4b9ad	-0.09605727
224	0x3c718e48	0.014743395
225	0xbdd2776f	-0.102766864
226	0x3da12dbb	0.078700505
227	0x3cb002cd	0.02148571
228	0xbc2f2dbb	-0.010692055
229	0x3d37ac3a	0.044841982
230	0xbdcffcd5	-0.10155646
231	0x3e086d5c	0.13322967
232	0x3d6c60c3	0.057709467
233	0x3dd1527e	0.10220812
234	0x3c173842	0.0092297215
235	0x3dbd7a44	0.09251836
236	0x3e0419a0	0.129004
237	0x3d18bef2	0.037291475
238	0x3d97c651	0.07410873
239	0xbd460532	-0.0483448
240	0x3d8f6919	0.07002468
241	0xbc8d0150	-0.01721254
242	0x3dd82959	0.105547614
243	0x3df125c4	0.11774781
244	0x3d65729f	0.056017514
245	0x3c39355b	0.011304225
246	0xbc82907d	-0.015938038
247	0x3db5ac78	0.088707864
248	0xbcd70206	-0.026246082
249	0x3bf8636a	0.0075802105
250	0x3d4e4c91	0.05036599
251	0x3dc19e33	0.09454002
252	0xbca5c78c	-0.020236753
253	0xbae001af	-0.0017090346
254	0xbba290c1	-0.0049611037
255	0xbd21131a	-0.039324857

bias_ih_l0 f4 [256]
0	0x3ce26b22	0.027638976
1	0x3cba6049	0.02275099
2	0x3e65d254	0.22443515
3	0x3db9ef7a	0.0907888
4	0x3d367b53	0.044551205
5	0x3dd0f67d	0.10203264
6	0x3d84077d	0.06446741
7	0xbdb06f24	-0.086149484
8	0x3e180e6d	0.14849253
9	0x3dd12b12	0.10213293
10	0x3e15bba6	0.14622363
11	0x3b9077ad	0.0044087977
12	0x3d6e4165	0.058167834
13	0x3dbb4c42	0.091454044
14	0x3ddc4f25	0.10757283
15	0x3c5d24f8	0.013497584
16	0x3e051a30	0.12998271
17	0x3cec0963	0.02881307
18	0x3e03c55e	0.12868258
19	0x3cec57d2	0.02885047
20	0x3e8069c3	0.2508069
21	0xbd3fbfc3	-0.046813738
22	0x3d294cb4	0.041332915
23	0xba97ab97	-0.0011571524
24	0x3e21faff	0.15818404
25	0x3b6feb62	0.0036608805
26	0x3ce1fa65	0.027585218
27	0x3d176762	0.036963828
28	0x3e30886d	0.17239542
29	0x3db0fa82	0.086415306
30	0xbc5b6599	-0.013390922
31	0xbdd4ebb7	-0.103965215
32	0xbc9dc3aa	-0.019258339
33	0xbd83d519	-0.064371295
34	0x3d4547a5	0.04816403
35	0x3dd3af6e	0.10336195
36	0x3d9b27eb	0.07575973
37	0x3df7d334	0.12100831
38	0xbcb4b164	-0.022057243
39	0xbd458a5f	-0.048227664
40	0xbd2b2128	-0.041779667
41	0x3e4b46f7	0.1985129
42	0x3dca01de	0.098636374
43	0x3e094ba9	0.13407768
44	0x3ba567ab	0.0050477586
45	0x3dfb80e9	0.12280447
46	0x3de97b0a	0.11400421
47	0x3d832547	0.064035945
48	0x3e1e58a4	0.15463501
49	0x3d25809e	0.040405862
50	0x3e046450	0.12928891
51	0x3e041af2	0.12900904
52	0xbd4036f2	-0.0469274
53	0x3dd8f63b	0.1059384
54	0x3d168621	0.03674901
55	0xbd3823fd	-0.044956196
56	0xba7b2c47	-0.0009581488
57	0xbd381f79	-0.04495189
58	0xbd096f03	-0.033553135
59	0x3e5b6889	0.21426596
60	0x3d3c85cb	0.046026032
61	0x3dc7e069	0.097596
62	0x3d8c7c72	0.068596736
63	0x3e324448	0.1740886
64	0x3cc2cf3e	0.023780461
65	0x3c4fe9c1	0.012690009
66	0x3e21d3e1	0.15803482
67	0xbd16b1eb	-0.03679077
68	0xbdd04bd3	-0.10170712
69	0x3d11aadd	0.03556334
70	0x3da9622f	0.0827068
71	0x3dadb657	0.08482044
72	0xbdd366ed	-0.10322366
73	0xbd810da8	-0.06301433
74	0x3cb4cc9f	0.022070227
75	0xbd82403e	-0.063599095
76	0x3de9f107	0.114229254
77	0xbc47e430	-0.0122004
78	0x3cef1b1a	0.029187728
79	0xbd28378b	-0.041068595
80	0x3dfe5364	0.12418249
81	0xbd134779	-0.035956834
82	0xbdde7b89	-0.10863406
83	0x3d9cccfe	0.07656287
84	0x3d824d97	0.06362455
85	0x3bc74dcb	0.0060822717
86	0x3de90c0a	0.113792494
87	0x3b834761	0.0040063118
88	0xbd145044	-0.03620936
89	0xbe0d3132	-0.13788298
90	0xbcff4158	-0.031159088
91	0xbd3ff46e	-0.046863966
92	0x3da8286a	0.08210833
93	0xbda55bfb	-0.080741845
94	0x3de812ca	0.11331709
95	0xbd3cee56	-0.046125732
96	0x3dee59e3	0.11638238
97	0x3e014b08	0.12626278
98	0x3c694f7a	0.01424014
99	0xbd0e9906	-0.034813903
100	0x3dfd4c23	0.123680376
101	0xbde9fe1c	-0.11425421
102	0x3dd8c798	0.105849445
103	0x3e062059	0.13098277
104	0xbcebb62d	-0.028773392
105	0xbbb0bed2	-0.0053938413
106	0x3c992fb0	0.018699497
107	0x3e07d49c	0.13264698
108	0x3daef017	0.08541887
109	0x3d6517ed	0.05593102
110	0x3e1a9502	0.15095904
111	0x3df8ec38	0.1215443
112	0x3d8ad764	0.06779364
113	0xbb7d4d00	-0.0038650632
114	0x3d8d3cef	0.06896388
115	0xbc8da133	-0.01728878
116	0x3de952ef	0.113927715
117	0xba4fa675	-0.00079212274
118	0x3e2f169f	0.17098473
119	0x3dc250b7	0.094880514
120	0xbd876cfb	-0.06612583
121	0x3b450c6d	0.003006722
122	0x3d23c6d9	0.039984558
123	0xbd977b7f	-0.07396602
124	0x3ae2a7a4	0.0017292392
125	0xbd2e737f	-0.042590614
126	0x3de83478	0.113381326
127	0x3e344cb6	0.17607388
128	0xbccc0bbd	-0.024907941
129	0xbdd98716	-0.10621469
130	0xbd908c21	-0.070579775
131	0xbd3dc677	-0.04633185
132	0xbdc5dbe5	-0.09661082
133	0x3e04f977	0.12985788
134	0x3c14c314	0.009079713
135	0xbda72ef4	-0.081632525
136	0xbc122a29	-0.008921185
137	0xbc4f5042	-0.012653412
138	0x3c32d4bf	0.01091498
139	0x3d7327e5	0.05936422
140	0x3d91351c	0.07090208
141	0xbdb0b0b4	-0.086274534
142	0xbd4cf698	-0.050039858
143	0xbe0f9a97	-0.14023815
144	0xbd63b372	-0.055591054
145	0xbe0cfc08	-0.13768017
146	0x3cb28a6e	0.021794524
147	0xbdc7bdb8	-0.09752983
148	0xbd19ebd6	-0.037578426
149	0x3de7b916	0.11314599
150	0x3e255c27	0.16148435
151	0x3d6574cf	0.0560196
152	0x3d6f474a	0.058417596
153	0x3de6463d	0.11243866
154	0x3b587bda	0.0033032806
155	0x3ca897f0	0.020580262
156	0xbc11b827	-0.008894003
157	0xbdc94870	-0.098282695
158	0x3dac2792	0.08405985
159	0xbdcbf0c9	-0.099580355
160	0xbcdfbd98	-0.027312085
161	0xbdd1e4e7	-0.10248738
162	0xbd61fa56	-0.05517038
163	0x3de58340	0.112066746
164	0xbba191c5	-0.004930707
165	0x3d3c50e7	0.045975592
166	0x3cb7d72b	0.022441467
167	0x3dc3dac0	0.095632076
168	0xbbda4574	-0.0066611115
169	0x3d179ae4	0.03701295
170	0xbd9aa1c8	-0.075503886
171	0x3d8e64dc	0.06952831
172	0x3cfa3234	0.030541517
173	0xbdbb8a41	-0.09157229
174	0xbdb2d6b9	-0.08732361
175	0xbd537a36	-0.05163022
176	0x3dd544ef	0.10413539
177	0x3d44265a	0.047888137
178	0x3ddba03a	0.1072392
179	0x3dcd3f45	0.10021833
180	0x3ca34238	0.019929036
181	0xbd86ae34	-0.06576195
182	0x3e0b6cc3	0.13615708
183	0x3c0e9c25	0.00870422
184	0xbd3b2630	-0.045690715
185	0x3d86a163	0.06573751
186	0xbddee213	-0.10882964
187	0xbbeb4dbc	-0.0071808975
188	0x3dbff00a	0.09371956
189	0x3d66aee2	0.056319125
190	0xbdfbad48	-0.1228891
191	0x3de73d65	0.11291007
192	0x3d9ae5e9	0.07563383
193	0x3dc14136	0.09436266
194	0x3e546988	0.20743382
195	0x3dc271e0	0.09494376
196	0x3dbc5811	0.09196485
197	0x3dca7e6e	0.09887396
198	0xbd12006c	-0.035644934
199	0xbd8394c5	-0.0642486
200	0x3e246190	0.16052842
201	0x3c984346	0.018586766
202	0x3e6e64fe	0.23280713
203	0x3dc03075	0.093842424
204	0xbd9f8a54	-0.07790056
205	0x3e12bee7	0.14330636
206	0x3e0fab56	0.14030203
207	0xbd5f3393	-0.054492544
208	0x3d50ed79	0.05100772
209	0xbd86d8be	-0.06584309
210	0x3e2333bf	0.15937708
211	0x3e023e98	0.1271919
212	0x3e37aff7	0.17938219
213	0x3de2dd99	0.11077423
214	0x3bcd1487	0.0062585506
215	0x3dc43557	0.09580486
216	0x3c78e7e5	0.015192007
217	0x3e16983f	0.14706515
218	0x3def3eef	0.116819255
219	0xbc0348a4	-0.008012924
220	0xbd3603db	-0.04443727
221	0x3e52b283	0.2057591
222	0x3e2fff18	0.17187154
223	0xbc47c0a0	-0.0121919215
224	0x3d4eeef3	0.05052085
225	0xbd431842	-0.047630556
226	0xbd374854	-0.04474671
227	0xbd2df2ea	-0.04246799
228	0xbd2c5e04	-0.042081848
229	0x3d1a20a9	0.037628803
230	0xbd3faa2b	-0.046793144
231	0x3dbc6fed	0.09201036
232	0x3db61bb4	0.08892003
233	0x3dd31f20	0.10308671
234	0x3e0c3616	0.13692507
235	0x3c12de14	0.00896408
236	0x3be588aa	0.007004817
237	0xbda283b8	-0.079352796
238	0x3e158a69	0.1460358
239	0x3d309b8a	0.043117084
240	0x3d126e3c	0.03574966
241	0xbd783702	-0.060599335
242	0x3dd6e567	0.10492974
243	0xbd624196	-0.05523833
244	0x3e31b4b4	0.17354089
245	0xbd8d7ea7	-0.06908923
246	0x3dfd9d8b	0.123835646
247	0x3db6aac2	0.08919288
248	0xbd802887	-0.0625773
249	0x3e11291e	0.14175841
250	0x3e2f6b36	0.17130741
251	0x3e025b32	0.12730101
252	0x3e3a5435	0.18196185
253	0xbc4b3722	-0.012403281
254	0x3d64dac0	0.05587268
255	0x3e244d36	0.16045079

bias_hh_l0 f4 [256]
0	0x3dd7807e	0.10522555
1	0x3d0af5bc	0.033925757
2	0x3e6fdbf7	0.23423754
3	0x3cdec102	0.027191643
4	0xbc181df0	-0.009284481
5	0x3da2f07b	0.07956024
6	0x3e04803e	0.12939546
7	0xbd152e46	-0.036421083
8	0x3db46c36	0.08809702
9	0xbb7bd93b	-0.003842904
10	0x3dbf456a	0.093394116
11	0x3dc7db82	0.09758665
12	0x3d44f243	0.0480826
13	0xbca0f295	-0.019646922
14	0x3daaaeb4	0.08334103
15	0x3e2e3389	0.17011847
16	0xbc075aaa	-0.008261362
17	0x3e07632d	0.13221426
18	0x3c969904	0.01838351
19	0x3df06dcd	0.11739693
20	0x3e61395f	0.21994542
21	0x3db163a6	0.086615846
22	0x3e082ff5	0.13299544
23	0x3dcff1f6	0.10153572
24	0x3d1bf2b3	0.038073253
25	0x3e12d480	0.14338875
26	0xbb11aa0d	-0.0022226602
27	0x3e1a4334	0.15064698
28	0x3e4a7872	0.19772509
29	0x3dac1773	0.0840291
30	0x3e1c4480	0.15260506
31	0x3d474c46	0.048656724
32	0xbd9e7d1e	-0.07738708
33	0xbcd5ed78	-0.02611421
34	0x3d095ca0	0.0335356
35	0x3e3034f8	0.17207706
36	0x3e0f2672	0.1397951
37	0x3d9b00e6	0.07568531
38	0xbd90abb4	-0.07064
39	0xbd2177df	-0.03942096
40	0xbdaf932e	-0.08572994
41	0x3dc06254	0.093937546
42	0xbd08ece3	-0.033429038
43	0x38a5c330	7.9041696e-05
44	0xbd139680	-0.0360322
45	0x3d9611e1	0.07327629
46	0x3d9a2ac6	0.0752769
47	0x3d97c87b	0.074112855
48	0x3e2e432c	0.17017812
49	0x3d7a0242	0.06103731
50	0x3da0734f	0.07834493
51	0x3e13cd03	0.14433675
52	0x3c751b41	0.014960111
53	0x3e0c9d16	0.13731799
54	0x3d5cb531	0.053883735
55	0xbd8c8218	-0.06860751
56	0xbc8ede12	-0.017439876
57	0xbca96b4b	-0.020681044
58	0x3d0cb94e	0.034356408
59	0x3dbce251	0.09222854
60	0x3da61c19	0.08110828
61	0x3d102e9a	0.035200693
62	0xbd31fa1b	-0.04345141
63	0xbd8636fa	-0.06553455
64	0xbc03248e	-0.008004321
65	0xbd2252c8	-0.039629728
66	0xbdb0c5c4	-0.08631471
67	0x3e2bd0e8	0.1677891
68	0x3dc19bcf	0.09453546
69	0x3de9e150	0.11419928
70	0x3dbd78c1	0.092515476
71	0x3d893d8a	0.06701191
72	0xbd788668	-0.060675055
73	0x3c9597a7	0.01826079
74	0xbd8e3d6b	-0.06945308
75	0x3d98e9ef	0.07466494
76	0x3d9de4dd	0.07709668
77	0xbdb60716	-0.0888807
78	0x3dcb349c	0.09922144
79	0xbdeb2eb0	-0.11483514
80	0x3dee6d50	0.116419435
81	0x3d584682	0.052801616
82	0xbc6eced5	-0.01457568
83	0xbd447686	-0.047964595
84	0x3cf77e06	0.03021146
85	0x3d3c5b9e	0.04598581
86	0x3d90a07b	0.07061859
87	0xbd5ab70c	-0.053397223
88	0xbd15dca8	-0.036587387
89	0xbe050bda	-0.12992802
90	0xbd3fa410	-0.04678732
91	0xbd3bf16a	-0.045884527
92	0xbd54d0f7	-0.051957097
93	0x3d85203c	0.06500289
94	0xbdc2ee28	-0.09518081
95	0xbc9588d8	-0.018253729
96	0x3d484726	0.048895977
97	0xbcd0b905	-0.02547885
98	0x3c042653	0.008065778
99	0x3dbf9613	0.09354796
100	0x3d060554	0.032719925
101	0xbc247fc7	-0.01004023
102	0x3e089ee3	0.1334186
103	0xbc21264c	-0.009835791
104	0xbcdd44e6	-0.027010392
105	0x3e1b3e2e	0.15160438
106	0xbcd92f0a	-0.026511688
107	0xbd6b9d85	-0.05752327
108	0x3e28e635	0.16494067
109	0xbd99f74a	-0.0751787
110	0xbcdaeec3	-0.026725179
111	0xbc5a8f95	-0.013339897
112	0x3d69e386	0.05710175
113	0x3e2983c9	0.16554178
114	0xbd03857c	-0.032109722
115	0xbcd6a049	-0.026199477
116	0x3e27e14f	0.16394542
117	0x3e24f079	0.16107358
118	0x3ddf5cf7	0.109064035
119	0xbd8225ee	-0.06354891
120	0x3e027f5a	0.12743893
121	0x3d423e13	0.04742248
122	0xbd18c8e4	-0.03730096
123	0x3d84105c	0.06448433
124	0xbda2fe83	-0.079587005
125	0x3d36efc1	0.04466224
126	0xbd2e75f8	-0.042592973
127	0x3e667dc4	0.22508913
128	0xbc164b83	-0.009173277
129	0xbda7caed	-0.08193002
130	0x3dc31db4	0.0952715
131	0x3e0ecea7	0.13946019
132	0xbd18ee25	-0.037336487
133	0x3dc71098	0.09719962
134	0xbd12299b	-0.03568421
135	0xbd9f6b10	-0.077840924
136	0xbd88faaa	-0.066884354
137	0xbe02d01b	-0.12774698
138	0x3dba9385	0.09110168
139	0x3d4b3909	0.04961494
140	0xbdc40f76	-0.095732614
141	0xbe079424	-0.13240105
142	0x3d62f085	0.05540516
143	0xbcdd34df	-0.02700275
144	0xbdc4c6d2	-0.096082345
145	0xbd24e100	-0.04025364
146	0xbc51f239	-0.012814098
147	0xbbba3d59	-0.0056835827
148	0xbd3e4bfa	-0.046459176
149	0xbd7f30c8	-0.06230238
150	0xbccc5b0e	-0.024945762
151	0xbc424251	-0.011856631
152	0xbb50a16a	-0.0031834492
153	0x3dbd705e	0.09249948
154	0x3cc82930	0.024433702
155	0x3d9a6eb1	0.07540644
156	0xbd21f3e6	-0.03953924
157	0xbd2ac768	-0.041694075
158	0xbdb99f2a	-0.09063561
159	0xbdeaf5b7	-0.11472648
160	0xbd8873df	-0.06662726
161	0xbcc85b1d	-0.024457509
162	0x3e0bdf8f	0.136595
163	0xbe096e4b	-0.1342098
164	0x3dcd0c43	0.10012104
165	0x3d916cc0	0.071008205
166	0x3d5ee508	0.05441764
167	0x3d83db78	0.06438345
168	0x3d0c8e93	0.034315657
169	0x3e101186	0.14069185
170	0x3ce6a7d0	0.028156191
171	0x3ca8b4cc	0.020594023
172	0x3d50b5db	0.05095468
173	0xbc727591	-0.014798538
174	0xbd6b4250	-0.057436287
175	0x3d456e8a	0.04820112
176	0x3df8f9d7	0.12157028
177	0x3dbc66cc	0.091992944
178	0xbc8840e7	-0.01663251
179	0x3bbf2e9a	0.0058344128
180	0x3d8d674f	0.0690447
181	0x3db247fa	0.08705135
182	0xbdbd5355	-0.0924441
183	0x3ba7e68e	0.00512392
184	0xbc7db41d	-0.015484837
185	0x3e0a9f30	0.13537288
186	0x3c6d0d59	0.014468514
187	0xbd8aa193	-0.06769099
188	0xbd7eb75e	-0.06218659
189	0x3defc769	0.11707956
190	0xbd2ef36e	-0.04271262
191	0x3cde6e15	0.0271521
192	0x3e221b65	0.15830763
193	0x3c8dabda	0.01729386
194	0x3dca7b77	0.0988683
195	0xbd9616c9	-0.07328565
196	0xbc9bea0f	-0.019032506
197	0x3dab2db2	0.08358325
198	0x3d0d0b64	0.03443469
199	0x3db44f33	0.088041686
200	0xbc6a81f8	-0.0143132135
201	0x3da7f0e1	0.08200241
202	0x3d9d8de1	0.07693077
203	0x3de6f5da	0.11277361
204	0x3c262157	0.010139785
205	0x3e358971	0.17728211
206	0x3db44073	0.08801355
207	0x3dde716d	0.10861478
208	0xbd50f2ee	-0.051012926
209	0x3d5657f1	0.05232996
210	0x3e42f6e8	0.190395
211	0xbd0e5071	-0.034744684
212	0x3e6f6c52	0.23381165
213	0x3da20bbe	0.07912396
214	0x3cb7987e	0.022411581
215	0x3c98a143	0.018631583
216	0x3e00dbdd	0.12583871
217	0x3c5cf697	0.013486526
218	0x3db5278a	0.08845432
219	0x3d5257f3	0.051353406
220	0x3e36a648	0.17836869
221	0x3dfe134f	0.124060266
222	0x3d68235b	0.056674343
223	0x3d8e588f	0.06950485
224	0xbd691718	-0.05690679
225	0x3c11af06	0.0088918265
226	0x3c33f8b1	0.010984586
227	0x3e3fec1e	0.18742415
228	0x3df682e6	0.12036686
229	0xbce12e17	-0.027487798
230	0x3d29af74	0.04142709
231	0x3e18f320	0.14936495
232	0x3d483576	0.04887911
233	0x3e4e1ab3	0.20127372
234	0x3d7d196e	0.06179183
235	0x3dcf618b	0.10126027
236	0x3e3bb375	0.18330176
237	0x3e1c503e	0.15264985
238	0xbbfd6d91	-0.0077340086
239	0x3d65d058	0.056106895
240	0x3d99c397	0.07508009
241	0x3e27dc41	0.16392614
242	0x3cd9fffd	0.026611323
243	0x3d54ea8b	0.05198149
244	0x3e0a8503	0.13527302
245	0x3ceb7cb7	0.028745992
246	0x3d1cad10	0.038250983
247	0x3df1cb5d	0.118063666
248	0xbc025bc1	-0.007956446
249	0x3e01cab8	0.12674987
250	0x3cbdb17c	0.02315592
251	0xbdaaa9fa	-0.08333202
252	0xbc931522	-0.017954413
253	0x3da00236	0.07812922
254	0x3e2b576f	0.16732572
255	0x3cfba7d3	0.030719673

weight_ih_l1 f4 [256, 64]
0	0x3d11419f	0.03546297
1	0xbe102a98	-0.14078748
2	0x3e1768f7	0.14786135
3	0x3e40271e	0.18764922
4	0x3e3deaa6	0.18546543
5	0x3dc5ea3e	0.09663819
6	0xbde6d093	-0.11270251
7	0xbd958968	-0.07301599
8	0x3e5ac60e	0.21364614
9	0x3dd2d630	0.10294759
10	0x3e42fe26	0.19042262
11	0x3b26164c	0.002534288
12	0x3c34d52d	0.011037153
13	0xbd8ff94f	-0.07029974
14	0xbde051df	-0.10953116
15	0x3dcfbfe3	0.10144021
16	0x3e232600	0.15932465
17	0xbdfaaa3e	-0.12239502
18	0xbd97f829	-0.0742038
19	0x3da418b5	0.08012525
20	0x3e1287f8	0.1430968
21	0xbe045e28	-0.12926543
22	0x3e690bba	0.2275838
23	0xbdd58d1a	-0.104273036
24	0xbd018125	-0.031617302
25	0x3e67451b	0.22584955
26	0x3d1a25b9	0.03763363
27	0xbdc4d19a	-0.09610291
28	0xbd9cb3b3	-0.076514624
29	0xbb611fb3	-0.003435117
30	0xbd9e0c0b	-0.07717141
31	0xbddee407	-0.108833365
32	0x3cf07f69	0.029357629
33	0x3d4b0a3e	0.049570315
34	0x3cd7cc51	0.026342543
35	0x3c249bc9	0.010046908
36	0xbe1bac54	-0.15202457
37	0x3e49125e	0.19635913
38	0xbc171a21	-0.009222538
39	0x3e0eec0b	0.13957231
40	0x3dd3bd4a	0.103388384
41	0x3d366cf7	0.04453751
42	0x3e2d655a	0.16933194
43	0x3e876987	0.26447698
44	0xbc538393	-0.012909788
45	0x3c3d49e8	0.011553265
46	0xbd9a9f64	-0.075499326
47	0xbb3a7cea	-0.0028455802
48	0x3db88e00	0.09011459
49	0xbd266232	-0.04062099
50	0xbbe94048	-0.0071182586
51	0x3e343986	0.17600068
52	0x3dac3709	0.084089346
53	0x3d31ee93	0.043440413
54	0x3e5c784b	0.21530263
55	0xbde02268	-0.109440625
56	0xbdaa8121	-0.08325411
57	0x3d64f238	0.05589506
58	0xbd089149	-0.03334168
59	0xbd2db6fa	-0.04241083
60	0xbe7013b2	-0.23445013
61	0x3d630d61	0.05543268
62	0xbdbb060e	-0.09132014
63	0xbe358e97	-0.17730175
64	0x3d056378	0.032565564
65	0x3da0c2ed	0.07849679
66	0x3d80b6c0	0.06284857
67	0x3ca85773	0.020549512
68	0xbd7bb014	-0.061447218
69	0xbd00fa25	-0.031488556
70	0xbdc7bf33	-0.09753265
71	0x3dfa397e	0.12217997
72	0x3ba5233a	0.0050395997
73	0x3ccd996e	0.025097575
74	0xbdd74f2c	-0.10513148
75	0xbdbe43cb	-0.09290274
76	0xbc971329	-0.018441753
77	0x3d955d08	0.07293135
78	0x3e0876cc	0.13326567
79	0xbcfd481a	-0.03091817
80	0x3d3c5d8d	0.045987654
81	0xbc7f1146	-0.015568083
82	0xbd5c2ceb	-0.053753775
83	0x3de71e87	0.112851195
84	0xbc820408	-0.015871063
85	0x3e04f237	0.12983023
86	0xbe20d568	-0.15706408
87	0x3c5b6eff	0.013393163
88	0xbd49ace0	-0.049237132
89	0x3dca5aa0	0.098805666
90	0x3d7eaf8b	0.06217913
91	0x3d16d5a4	0.036824837
92	0x3d97723a	0.07394834
93	0xbd720ea8	-0.05909601
94	0xbc95d0ec	-0.018288098
95	0x3d859f68	0.06524545
96	0xbdc019ec	-0.09379944
97	0x3cc021d3	0.023453629
98	0x3d3b9edf	0.04580581
99	0xbdc50ba8	-0.09621364
100	0xbd92a9a5	-0.071612634
101	0xbdb78919	-0.08961696
102	0xbdf718e0	-0.120652914
103	0xbd5292ca	-0.05140952
104	0x3d35a55b	0.04434715
105	0x3d186323	0.03720392
106	0x3d83cc23	0.0643542
107	0xbc41c3c7	-0.011826462
108	0xbd998669	-0.0749634
109	0xbe09cbbd	-0.13456626
110	0x3dde490a	0.10853775
111	0x3beb2622	0.0071761766
112	0x3dd58d9c	0.104274005
113	0xbde1cecf	-0.11025774
114	0xbd9c3234	-0.07626763
115	0x3bc0a2ca	0.005878781
116	0x3db53e84	0.088498145
117	0xbdb98cad	-0.09060035
118	0xbd85a813	-0.06526198
119	0xbd9826b8	-0.0742926
120	0x3d395c30	0.045253932
121	0x3ca30431	0.01989946
122	0xbd41c51d	-0.047307122
123	0x3d9b36a2	0.0757878
124	0xbda3dc66	-0.08001022
125	0xba2f66a9	-0.0006691018
126	0xbd722c05	-0.05912401
127	0xbc943ba1	-0.01809484
128	0x3da32562	0.079661146
129	0xbe0fb387	-0.14033328
130	0x3e691d20	0.22765017
131	0xbd612dcc	-0.054975316
132	0x3cb4126f	0.021981446
133	0xbd9310fd	-0.07180975
134	0x3c0be9ed	0.008539659
135	0x3e32312d	0.17401572
136	0x3e240c59	0.16020335
137	0x3d19d500	0.03755665
138	0x3e3608d3	0.17776804
139	0xbdb0ce4a	-0.086330965
140	0x3e421bd0	0.18955922
141	0xbe1bfb35	-0.15232547
142	0xbcb6350e	-0.022242095
143	0x3dbd6e08	0.092495024
144	0x3dcdef18	0.10055369
145	0xbd1475ed	-0.036245275
146	0xbd82733b	-0.06369635
147	0x3e25e1c7	0.16199408
148	0x3e5d9337	0.2163819
149	0xbde47c33	-0.111565016
150	0x3de445c8	0.11146122
151	0xbdd04ba7	-0.101706795
152	0x3de788ed	0.113054134
153	0xbd5d26e4	-0.053992167
154	0xbe45f339	-0.19331063
155	0x3d8acde8	0.06777555
156	0x3dfcb741	0.123396404
157	0xbd0b2abc	-0.0339763
158	0xbe0a0648	-0.13478959
159	0xbda7f9ee	-0.08201967
160	0xbe0a7f2b	-0.13525073
161	0x3dcde9a9	0.10054333
162	0xbdbc1413	-0.09183516
163	0x3b9942d7	0.0046771574
164	0xbe0f750c	-0.14009494
165	0x3d8c2e28	0.06844741
166	0x3d14ffd3	0.036376785
167	0x3e28328c	0.16425532
168	0xbdc3d35e	-0.095617995
169	0x3d6d8a50	0.057993233
170	0x3df8c4b5	0.12146894
171	0x3d503270	0.05082935
172	0xbc9e86fc	-0.019351475
173	0x3db25a40	0.0870862
174	0xbdf83232	-0.12118949
175	0xbcd1db9e	-0.025617417
176	0x3c3aa39b	0.011391546
177	0xbe428fc7	-0.19000159
178	0x3da6eaef	0.08150279
179	0x3df620b7	0.120179586
180	0x3cc76ce2	0.024343912
181	0x3d00fe05	0.031492252
182	0x3df2e3b1	0.11859835
183	0x3d3f100b	0.04664616
184	0xbc872657	-0.016497774
185	0xbdd7bd9d	-0.10534213
186	0xbdd3fa0a	-0.103504255
187	0xbbcc6e48	-0.0062387325
188	0xbdf2efa5	-0.11862115
189	0xbdba3b7f	-0.09093379
190	0xbe495a07	-0.19663249
191	0xbe15e273	-0.14637165
192	0x3d9c4059	0.07629461
193	0xbe00480f	-0.12527488
194	0x3e0b88d1	0.1362641
195	0x3e7452ce	0.23859712
196	0x3de02741	0.10944987
197	0xbe317fe0	-0.17333937
198	0xbe38e70f	-0.18056892
199	0x3d391053	0.045181584
200	0x3cb3b245	0.021935591
201	0xbdb5d21e	-0.08877967
202	0x3db07928	0.08616859
203	0x3cef5a68	0.029217914
204	0x3da0b3a2	0.07846762
205	0xbe3993c2	-0.18122771
206	0xbe672807	-0.22573863
207	0x3e54f2a9	0.20795693
208	0xbdb4f719	-0.08836193
209	0xbd7539bc	-0.059869513
210	0xbba461dc	-0.0050165486
211	0x3beb18ec	0.007174602
212	0xba8aceee	-0.0010590234
213	0x3d2a429f	0.04156744
214	0x3e88f999	0.26752928
215	0xbe1c19c7	-0.15244208
216	0xbd8a6815	-0.06758133
217	0x3e33d17c	0.1756038
218	0x3d820d38	0.063501775
219	0xbe1c5417	-0.15266453
220	0x3d946580	0.07245922
221	0xbdb46ff5	-0.088104166
222	0xbe31bc73	-0.17357044
223	0xbd0051f2	-0.03132815
224	0xbe51beaa	-0.20482889
225	0xbddedbb5	-0.108817495
226	0x3de75151	0.11294807
227	0x3dea4b55	0.1144015
228	0xbdf0d02d	-0.117584564
229	0x3d2b9012	0.041885443
230	0xbc1ed681	-0.009694696
231	0x3adacff0	0.001669405
232	0x3db29da0	0.08721471
233	0x3e18f3dd	0.14936776
234	0x3e04935b	0.12946837
235	0x3e1927e8	0.1495663
236	0xbca68780	-0.020328283
237	0xbae63921	-0.0017564633
238	0x3dc1a6aa	0.09455617
239	0xbdc8f1f0	-0.09811771
240	0x3e5373a5	0.20649584
241	0xbd7d7e1a	-0.061887838
242	0x3daf7f96	0.08569257
243	0x3e7325cf	0.23744892
244	0x3e18223e	0.14856812
245	0xbd55278f	-0.05203968
246	0x3d4ce30f	0.050021227
247	0x3e74f082	0.23919871
248	0xbe57b983	-0.21066861
249	0x3dfa830f	0.12232029
250	0xbe890f23	-0.2676936
251	0xbdc7ad70	-0.097498775
252	0xbe7149d5	-0.23563321
253	0xbcb19085	-0.021675358
254	0xbe3d0006	-0.1845704
255	0xbd923f8c	-0.07141027

weight_hh_l1 f4 [256, 64]
0	0xbb057120	-0.0020361617
1	0x3d49da6e	0.049280576
2	0xbd2791cd	-0.04091053
3	0xbd3261bf	-0.04355025
4	0xbc516d06	-0.012782341
5	0xbe2ed6ca	-0.17074123
6	0xbd974621	-0.07386423
7	0xbd985fbe	-0.074401364
8	0x3e5bffc5	0.21484287
9	0x3d9eaa08	0.07747275
10	0x3d0ded9e	0.034650438
11	0xbdfb5519	-0.122720905
12	0x3d55b4f4	0.052174523
13	0x3dd2ca79	0.10292525
14	0x3c7bc25d	0.015366164
15	0x3e439456	0.19099554
16	0x3e5b4ba1	0.21415569
17	0xbd5fc937	-0.054635253
18	0xbe08b8d3	-0.13351755
19	0xbd93baec	-0.07213387
20	0x3d9b62f5	0.07587234
21	0xbd6cb762	-0.057792075
22	0xbdbf0702	-0.093275085
23	0xbd490762	-0.049079306
24	0xbcbc08fe	-0.022953507
25	0xbe0b109a	-0.13580552
26	0xbd64b574	-0.05583711
27	0xbd82f55b	-0.06394454
28	0x3cbfe2e9	0.023423629
29	0x3da4b200	0.08041763
30	0x3d27c4fa	0.040959336
31	0x3d860f26	0.06545858
32	0xbe7ae226	-0.24500331
33	0x3d3ad973	0.045617532
34	0x3dd213fa	0.102577165
35	0x3e067ca5	0.13133486
36	0x3e1b112c	0.1514327
37	0x3e0b30fc	0.13592905
38	0x3d8d3dcc	0.068965524
39	0xbc27db1e	-0.010245113
40	0x3e50fb43	0.20408349
41	0xbd2ef878	-0.042717427
42	0xbdc24c1c	-0.09487173
43	0x3ca3e15e	0.020004924
44	0x3bd506ab	0.006501039
45	0x3e0c986a	0.13730016
46	0xbd9ea610	-0.07746518
47	0x3e223d33	0.15843658
48	0xbbfa49fc	-0.007638214
49	0x3db8043c	0.08985183
50	0xbe111112	-0.14166668
51	0xbbede130	-0.0072595105
52	0xbd088619	-0.03333101
53	0x3ba988fa	0.0051737996
54	0x3d1934bd	0.03740381
55	0xbc9e0e5e	-0.01929396
56	0xbdaae691	-0.08344758
57	0x3c239a0a	0.009985456
58	0x3cd97c6f	0.026548592
59	0xbe170eea	-0.14751783
60	0x3d113618	0.03545198
61	0x3d2cc5b4	0.042180732
62	0x3d1a58ca	0.037682332
63	0xbd88905a	-0.06668158
64	0x3e0086c1	0.12551405
65	0x3d7fdaa7	0.062464382
66	0xbb4baee4	-0.0031079585
67	0x3de7cfc3	0.11318924
68	0xbc954b9e	-0.018224534
69	0xbdc6a809	-0.09700019
70	0x3d2d9c0d	0.04238515
71	0xbdd5efc8	-0.10446125
72	0x3d93cf2c	0.07217249
73	0x3d8891c5	0.06668428
74	0x3d9feb31	0.07808531
75	0x3cc295d2	0.02375308
76	0x3d9d33e6	0.076759145
77	0x3d5f2989	0.05448297
78	0x3de14d6f	0.110010974
79	0xbde04016	-0.109497234
80	0x3d71b725	0.05901255
81	0x3d19f4f0	0.037587106
82	0x3dc4fb68	0.096182644
83	0x3ddcc34d	0.10779438
84	0xbe12470c	-0.14284915
85	0x3dc96112	0.09832968
86	0x3c6dc342	0.014511885
87	0xbdac0c97	-0.08400839
88	0xbdae7169	-0.08517725
89	0x3b009e8f	0.0019625758
90	0x3dec7bef	0.11547076
91	0x3debe18b	0.11517628
92	0x3d7153c6	0.058917783
93	0xbdcb64f9	-0.099313684
94	0xbe15f7d3	-0.14645319
95	0xbd0bfc96	-0.03417643
96	0xbddbede1	-0.10738731
97	0xbd382f8d	-0.044967223
98	0xbe10b377	-0.1413096
99	0x3d9c43f7	0.07630151
100	0x3d661da9	0.05618063
101	0x3d8f4875	0.06996242
102	0xbd94415b	-0.07239028
103	0xbd96345f	-0.07334208
104	0xbd021fab	-0.031768482
105	0x3d7a0377	0.06103846
106	0x3d4a5b8f	0.049403723
107	0x3c90e811	0.017688783
108	0xbd99f221	-0.075168855
109	0x3cfc8079	0.03082298
110	0x3bef1950	0.0072967187
111	0x3dd15bca	0.102225855
112	0x3de2638a	0.11054142
113	0x3c8b0538	0.016970262
114	0xbd1da760	-0.0384897
115	0x3df3e8a5	0.11909608
116	0xbda2d3fc	-0.07950589
117	0x3b14f72f	0.002273034
118	0x3bdc3662	0.00672035
119	0xbcff00ed	-0.031128371
120	0xbd05015b	-0.032471996
121	0xbdab4eda	-0.08364649
122	0x3d32da0d	0.04366498
123	0x3d1c7e14	0.038206175
124	0x3da70e52	0.08157028
125	0x3d605e86	0.054777645
126	0x3d758559	0.059941623
127	0x3dcbf634	0.09959069
128	0x3df657ff	0.12028503
129	0x3d68ba60	0.056818366
130	0x3e098307	0.13428889
131	0x3db6bd65	0.08922843
132	0x3d780fc6	0.060561918
133	0xbe6c8479	-0.2309741
134	0x3c8723a7	0.016496493
135	0xbd998beb	-0.0749739
136	0x3c53718c	0.01290549
137	0xbbb7c7c0	-0.005608529
138	0x3bd4187f	0.0064726467
139	0xbdd77d46	-0.10521941
140	0x3cb9e1f4	0.02269075
141	0x3cd422bb	0.025895467
142	0xbbab0d53	-0.005220094
143	0x3db956b9	0.09049744
144	0x3e061b8d	0.13096447
145	0xbe1f33c9	-0.15547098
146	0x3cb51594	0.022105016
147	0xbe1f8bc4	-0.1558066
148	0x3e2ccfa8	0.1687609
149	0xbe1c57b5	-0.15267833
150	0x3c6a74e7	0.014310098
151	0x3d03f3a8	0.03221479
152	0x3d83bcee	0.0643252
153	0xbd9539b7	-0.07286399
154	0xbbc091eb	-0.00587677
155	0xbdd3d608	-0.103435576
156	0xbd6b27ff	-0.05741119
157	0xbd1bfea2	-0.038084634
158	0xbdc7eddb	-0.09762164
159	0x3d84c281	0.06482411
160	0xbd49f8d3	-0.049309563
161	0xbd18d78b	-0.037314933
162	0x3e852099	0.26001433
163	0x3d93123f	0.071812145
164	0xbdd60e52	-0.1045195
165	0xbc397ec3	-0.011321726
166	0x3d7e9633	0.06215496
167	0x3e043c0e	0.12913534
168	0x3decee3d	0.11568878
169	0xbd063cc8	-0.03277281
170	0xbccb3564	-0.024805732
171	0xbba834b1	-0.0051332344
172	0xbe000d79	-0.1250514
173	0x3d56f86e	0.052483015
174	0xbd5a5c0f	-0.05331045
175	0x3e254e7f	0.16143225
176	0x3d985e9d	0.07439921
177	0x3d8d6b1c	0.06905195
178	0xbc72e87c	-0.014825936
179	0x3dd256b6	0.10270445
180	0xbdb1dba8	-0.08684474
181	0xbcb00a43	-0.021489268
182	0xbde5a164	-0.112124234
183	0x3d970e61	0.073757894
184	0x3d50808a	0.050903834
185	0xbdff3d67	-0.124628834
186	0x3e0ddb26	0.1385313
187	0x3d5c3cab	0.053768795
188	0x3d0b5c3a	0.0340235
189	0x3dcdc059	0.10046453
190	0x3deb681b	0.11494466
191	0xbda79785	-0.08183197
192	0x3e2ac483	0.16676526
193	0xbe31a8ea	-0.17349592
194	0x3e3f9c4b	0.18711965
195	0xbc3efd5a	-0.011657083
196	0xbd005c99	-0.031338308
197	0xbd295615	-0.04134186
198	0x3e6bb547	0.2301837
199	0x3d44e295	0.048067648
200	0x3dcbc03b	0.099487744
201	0xbc636eec	-0.013881426
202	0xbe08ae51	-0.13347746
203	0xbd8f0145	-0.06982664
204	0xbd063ca7	-0.032772686
205	0xbd5e95db	-0.054342132
206	0xbc9d7e61	-0.019225301
207	0x3e297abd	0.16550727
208	0x3dffedd9	0.12496538
209	0xbd841120	-0.06448579
210	0x3dac8d15	0.08425347
211	0x3d87e82a	0.06636079
212	0x3e1b10ec	0.15143174
213	0xbddbd779	-0.107344575
214	0x3d8246a3	0.06361129
215	0x3e1c3632	0.15255049
216	0xbd5216c4	-0.051291242
217	0xbdcae2d9	-0.09906549
218	0xbe12b1c8	-0.1432563
219	0xbe0a8be7	-0.13529931
220	0x3d81929e	0.06326793
221	0x3c2b994c	0.010473561
222	0xbcfeecda	-0.031118799
223	0x3e263932	0.16232756
224	0xbd2c625b	-0.042085987
225	0x3dfe93c8	0.12430531
226	0x3e591a32	0.21201399
227	0xbc329022	-0.010898622
228	0xbd8d98b2	-0.0691389
229	0x3cb2f1d2	0.021843825
230	0xbdccfff7	-0.10009759
231	0xbc971565	-0.018442819
232	0x3d5b2c96	0.053509317
233	0x3e7384da	0.23781148
234	0x3dc53783	0.09629729
235	0xbd44d715	-0.04805668
236	0xbe2bf2ad	-0.16791792
237	0x3d236762	0.039893515
238	0x3e1a4e16	0.1506885
239	0x3d44976e	0.047995977
240	0xbd7f1822	-0.062278874
241	0xbd97d9d3	-0.074145935
242	0x3a4e6fff	0.0007874965
243	0x3e63f9f3	0.22263317
244	0xbcb3cc57	-0.021948023
245	0x3c71b729	0.014753141
246	0x3d6a2a43	0.05716921
247	0xbde4630b	-0.111517034
248	0x3d46e096	0.048554026
249	0xbdb63f1c	-0.08898756
250	0x3e7e2c6d	0.24821635
251	0x3b531545	0.0032208723
252	0x3d748fc8	0.059707433
253	0x3dbc7a5e	0.09203027
254	0xbd92659e	-0.07148288
255	0xbe2106b4	-0.15725213

bias_ih_l1 f4 [256]
0	0x3d337775	0.043815095
1	0x3dadcbfe	0.08486174
2	0x3d308480	0.04309511
3	0x3e522388	0.20521367
4	0x3ddabe79	0.10680861
5	0x37d3d384	2.5251655e-05
6	0x3de5cdfa	0.112209275
7	0x3db1a99c	0.086749285
8	0x3e09b54b	0.13448064
9	0xbdc878a1	-0.09788633
10	0xbded4129	-0.11584694
11	0x3d81fd83	0.06347182
12	0x3db79bd8	0.08965272
13	0xbc9a2869	-0.018818097
14	0xbcc51bf7	-0.024061186
15	0x3d1230b9	0.035690997
16	0x3e2c30ba	0.16815463
17	0x3d62de42	0.055387743
18	0x3e00adde	0.12566325
19	0x3e0a42c2	0.13502029
20	0x3cd26600	0.025683403
21	0x3d656935	0.056008536
22	0xbc6664a7	-0.014062083
23	0xbd80345f	-0.06259989
24	0x3dd11acb	0.102101885
25	0x3dc0d8e8	0.094163716
26	0xbc9889f0	-0.018620461
27	0x3d6a5e78	0.057219
28	0xbdba2c83	-0.09090521
29	0xbbc85c4d	-0.0061145187
30	0x3db66192	0.08905329
31	0x3dcf312e	0.10116802
32	0x3cfe9488	0.031076685
33	0x3d997d48	0.074945986
34	0xbca579c5	-0.020199666
35	0xbdbd90bb	-0.09256121
36	0x3db9edf1	0.09078587
37	0x3dc41402	0.09574129
38	0x3da6462b	0.08118852
39	0x3e03b50b	0.12862031
40	0xbc94af73	-0.018150067
41	0x3d4a5bfa	0.049404122
42	0x3d59e316	0.05319508
43	0xbd09bb23	-0.033625733
44	0x3e0e814c	0.1391651
45	0xbd9c0937	-0.07618945
46	0xbb619c57	-0.0034425461
47	0xbd0ef12c	-0.03489797
48	0x3dbc6340	0.09198618
49	0x3dfbdac5	0.12297586
50	0x3d87c76c	0.066298336
51	0x3c112150	0.00885804
52	0x3de44d24	0.11147526
53	0xbe00f62b	-0.12593906
54	0x3a00a888	0.00049079256
55	0xbde4d5b2	-0.11173572
56	0x3d0953f6	0.033527337
57	0x3df1222b	0.11774095
58	0x3d988d0f	0.0744878
59	0xbc96d926	-0.018414091
60	0xbd598d88	-0.05311349
61	0x3d9d76c5	0.07688669
62	0xbd8a438e	-0.06751166
63	0xbde8601d	-0.11346457
64	0x3d99749a	0.07492943
65	0x3cd35b33	0.025800323
66	0xbe1894bc	-0.14900488
67	0xbe3ffc81	-0.18748666
68	0x3d3aca85	0.045603294
69	0xbcfbed2b	-0.030752739
70	0xbd7938ff	-0.06084537
71	0x3d71a8b0	0.058998764
72	0x3bcbf417	0.006224166
73	0x3dc2ab49	0.09505326
74	0x3c8fafa9	0.017539816
75	0xbd580343	-0.052737486
76	0xbdd75108	-0.10513502
77	0x3b916ddc	0.004438145
78	0xbdbd21d1	-0.092349656
79	0xbcf5ce95	-0.030005733
80	0xbc7d5629	-0.015462437
81	0x3dc1ee62	0.09469296
82	0x3d844e94	0.064603
83	0xbdeadafc	-0.11467549
84	0xbb9f7503	-0.004866244
85	0x3de1d906	0.11027722
86	0xbd53cd8b	-0.051709693
87	0x3dd68e6e	0.10476385
88	0xbd63d2d1	-0.055620972
89	0xbda9e863	-0.082962774
90	0x3dcc45ad	0.09974227
91	0xbdd3e778	-0.103468835
92	0x3d7b09f2	0.06128878
93	0x3dc30cb0	0.09523904
94	0xbdc38d58	-0.095484436
95	0xbde42493	-0.111397885
96	0xbc3ddd3f	-0.011588394
97	0xbdbcc6cb	-0.09217604
98	0x3e15e861	0.14639427
99	0x3c935fb2	0.017989967
100	0x3dd1f275	0.10251323
101	0xbdbbb92d	-0.09166179
102	0xbbba697e	-0.005688845
103	0xb965b986	-0.00021908255
104	0xbdac26a5	-0.08405808
105	0xbd80083c	-0.062515706
106	0x3d7cd27e	0.06172418
107	0xbcf8e8ed	-0.030384505
108	0x3dc5b45d	0.09653542
109	0x3c940860	0.0180704
110	0xbc29b427	-0.010357893
111	0x3ce912a1	0.028451266
112	0xbd9b9a92	-0.07597841
113	0xbde75903	-0.112962745
114	0xbda4fbcf	-0.08055841
115	0xbc7e7767	-0.015531397
116	0x3d409445	0.0470164
117	0xbd8dbab2	-0.06920375
118	0xbdd4bb9e	-0.10387348
119	0xbd02e2b1	-0.03195447
120	0xbe004610	-0.12526727
121	0x3cc45c68	0.023969844
122	0xbdba6ae6	-0.091024205
123	0xbd015e5e	-0.031584136
124	0xbe039cfd	-0.12852855
125	0xbe34cce6	-0.17656288
126	0x3dcb0aa5	0.0991414
127	0x3deff2f6	0.11716263
128	0xbde7b9d6	-0.11314742
129	0x3b3ed01e	0.0029115747
130	0xbdb2a067	-0.087220006
131	0xbdc44690	-0.09583771
132	0xbe12ece4	-0.14348179
133	0xbd91a9c9	-0.07112462
134	0x3e0bad97	0.13640438
135	0x3d2bc227	0.041933205
136	0x3d71197c	0.058862194
137	0xbdb314c2	-0.087441936
138	0x3cfe9298	0.03107576
139	0x3c6dc22d	0.014511627
140	0x3c85b4cd	0.016321564
141	0x3ccca0c7	0.024979008
142	0xbd7a2b83	-0.061076652
143	0x3d5fd736	0.0546486
144	0x3d9d3bb1	0.07677401
145	0xbc45f979	-0.012083405
146	0x3e06bf4f	0.13158916
147	0x3d6b66ad	0.057470966
148	0x3d3b4b5e	0.045726173
149	0x3dd80f83	0.105498336
150	0x3b59dcce	0.0033243182
151	0x3d3d402b	0.046203773
152	0xbd46ce74	-0.048536733
153	0xbd6133ab	-0.054980915
154	0xbc20d2b3	-0.00981586
155	0x3cd81e5d	0.026381666
156	0xbbf682e8	-0.0075229295
157	0x3d4ad644	0.049520746
158	0xbc1a508a	-0.009418616
159	0x3defa400	0.117012024
160	0xbdf2308e	-0.11825667
161	0xbcd60641	-0.026126029
162	0x3c444381	0.011978985
163	0x3cdfdf3d	0.027328128
164	0xbd7809d3	-0.060556244
165	0x3b8480a1	0.004043654
166	0xbdb65344	-0.089026004
167	0x3c926682	0.017871145
168	0xbcfb709f	-0.03069335
169	0x3dd1eefb	0.1025066
170	0x3e079c34	0.1324318
171	0x3dfd621f	0.12372231
172	0xbd1da929	-0.0384914
173	0x3d0f61d6	0.035005413
174	0xbdb739b0	-0.0894655
175	0x39aa6288	0.00032498338
176	0x3cc8d990	0.024517804
177	0xbdff510c	-0.1246663
178	0xbdbc0658	-0.091808975
179	0x3b6d201e	0.0036182473
180	0xbc36d14b	-0.011158298
181	0xbdabaf41	-0.083830364
182	0x3da9ed5d	0.082972266
183	0x3d84540a	0.06461342
184	0xbb70f7c7	-0.003676878
185	0xbdb64e37	-0.08901637
186	0x3b1da75a	0.0024056048
187	0xbd4df211	-0.05027968
188	0xbd2fc3f7	-0.042911496
189	0xbc8c8048	-0.017151013
190	0x3d20dffd	0.039276112
191	0x3d4d9724	0.050192967
192	0xbd180f04	-0.037123695
193	0xbddf3d68	-0.10900384
194	0xbd035c06	-0.032070182
195	0xbc99d545	-0.018778453
196	0x3c669d43	0.01407558
197	0xbd2ceb94	-0.042216852
198	0xbd1ef0d3	-0.038803887
199	0xbd181b34	-0.037135318
200	0x3e0bfc03	0.13670354
201	0xbd72012f	-0.05908316
202	0xbd2b187f	-0.04177141
203	0x3db851a4	0.08999947
204	0x3c75fef5	0.0150144
205	0xbc0ef7a3	-0.008726033
206	0x3d95069b	0.072766505
207	0xbcef07c3	-0.029178506
208	0x3de2bb2c	0.110708565
209	0x3c1b4fc9	0.0094794715
210	0x3da0bda5	0.07848672
211	0x3cae13c3	0.021249657
212	0xbd7a9c90	-0.061184466
213	0xbd03d3ba	-0.03218434
214	0x3c8f083b	0.01745998
215	0xbbaa4e10	-0.005197294
216	0x3dd14e3a	0.10219999
217	0x3e0fba7b	0.1403598
218	0xbd1dd9c1	-0.038537744
219	0x3c6e0444	0.014527384
220	0xbc8cc0cd	-0.017181778
221	0x3dd9021d	0.10596106
222	0x3c5b3995	0.013380428
223	0x3dcc6c27	0.09981566
224	0x3db96de2	0.090541616
225	0x3d1475c4	0.036245123
226	0xbdcf5eb8	-0.10125488
227	0x3b002bdf	0.00195574
228	0xbd8d90db	-0.069123946
229	0xbd7c9677	-0.061666932
230	0x3cec601c	0.028854422
231	0xbd76979e	-0.060203187
232	0xbcb308fa	-0.021854866
233	0x3de615eb	0.11234649
234	0xbd482557	-0.048863735
235	0xbd482594	-0.048863962
236	0xbc007dbc	-0.007842477
237	0x3c9f24cb	0.019426724
238	0xbdccde96	-0.100033924
239	0xbdf8bbb1	-0.12145174
240	0xbd9ca479	-0.07648558
241	0x3c7c5d96	0.015403172
242	0x3cf58071	0.029968472
243	0xbd717341	-0.058947805
244	0xbd9ca5cb	-0.0764881
245	0xbb2da84d	-0.002649802
246	0xbdd51142	-0.10403682
247	0xbd8fce19	-0.07021732
248	0xbc025baa	-0.007956425
249	0xbd80785e	-0.06272958
250	0xbbcf480e	-0.0063257283
251	0xbb61ec86	-0.0034473254
252	0x3d322266	0.043489836
253	0x3d5a4de5	0.053296942
254	0x3d936f88	0.07199007
255	0xbd2f5c02	-0.042812355
