model_save/iTransformer_TCN_MAE.pt (torch, 369428 bytes, 95 tensors)

mem_tokens f4 [4, 16]
00000000: 6d99 143e df4b 1240 9cb4 9f3f 68dc ed3e
00000010: 389a 0640 2333 df3e 8883 cd3d 9600 993f
00000020: 463f b2be 7dc3 1cbf f03e 473e dd77 36be
00000030: 10c6 1d3f df23 18bf 6e39 663f 1def 2840
00000040: 1e60 e7be 276e aebf c200 e33d aad1 adbf
00000050: 124a d93e ee6b 4bbf c9dd 19c0 909e 96bf
00000060: 8632 d43f 4109 c63f ac53 09bf 8f2f 93bf
00000070: f7d0 d5be 09e8 323f b8a9 f23e dc27 78be
00000080: deab 17c0 dde2 603e e6ea dcbf 2fb0 453c
00000090: 6269 80bf 5aa6 2fbf 4271 d93f 0df7 0dbf
000000a0: ca32 673f 6d02 b83f 7836 07be ac08 dbbe
000000b0: 5226 b43d 3f7f fa3d 356c 10bf 6847 a13f
000000c0: b43b 7bbf 246e dd3e af08 36bf 37c1 193f
000000d0: f3ce f9bc db37 82bf ce21 bb3f 4f5b c73f
000000e0: fb94 5ebe 6ffb b5bf b9e7 833d c0af 3abf
000000f0: 9653 1b40 08b6 eb3e b45f ccbe 09f7 503f
0.14511652 2.2858808 1.2476993 0.4645722 2.1031628 0.43593702 0.10034853 1.1953304
-0.348139 -0.6123579 0.19457603 -0.17819162 0.61630344 -0.59429735 0.8993138 2.6395943
-0.4519052 -1.3627366 0.11084129 -1.3579609 0.42439324 -0.7946156 -2.4041617 -1.176714
1.6577919 1.5471574 -0.536433 -1.1498889 -0.4176099 0.6988531 0.4739511 -0.24233955
-2.369865 0.21961541 -1.7259185 0.012065931 -1.003216 -0.6861321 1.6987689 -0.55455095
0.9031187 1.437574 -0.13204372 -0.42780054 0.087963715 0.122313015 -0.5641511 1.2599916
-0.98137975 0.43248093 -0.71107 0.6006045 -0.030494189 -1.0173296 1.4619691 1.557474
-0.21736519 -1.4217356 0.06440682 -0.72924423 2.4269767 0.46037316 -0.39916766 0.81626946

gamma f4 [5, 1]
00000000: 0000 803f 0000 803f 0000 803f 0000 803f
00000010: 0000 803f
1.0 1.0 1.0 1.0 1.0

beta f4 [5, 1]
00000000: 0000 0000 0000 0000 0000 0000 0000 0000
00000010: 0000 0000
0.0 0.0 0.0 0.0 0.0

weight f4 [384, 16]
00000000: f5db 6ebe d15f afbd a6c2 c0bd a6aa 94bb
00000010: 74b7 fdbd 2aa1 ef3d a8f3 3bbd feb2 6f3e
00000020: 9e2b 313e 5044 70be 4489 263d af7b 423e
00000030: ffa4 7f3e 5f57 cb3d 3e53 7f3e 977f 323e
00000040: 87e9 003e 10e1 153e aceb b8bc fa5f d43d
00000050: 71d8 503e a987 44be 45d0 84be 3a83 f43d
00000060: d955 18be 98b3 4abe 97dd aa3d 4f85 3d3d
00000070: 584e c9bd ab46 07bd ada9 9fbd feea 06be
00000080: 9549 563e 76f2 14be a86a 5c3e 4dba 403e
00000090: 7e2a 5fbc 145c 38be 5727 303b 036c 0f3d
000000a0: cc5a 743e b50a 0c3b 0706 5abe a7ef 403d
000000b0: c044 4f3e 8507 18be 0ddc 09be 5f5a 233c
000000c0: c016 c7bd c95c 593b bc40 cb3d 372d 0c3e
000000d0: 961e 26be fc2a 2bbe 883c 493e 9193 18be
000000e0: 24cb f3bd ef5b 5bbe 27f2 983c 4561 633d
000000f0: 1129 833e 400c 0dbd 5ad7 9cbd 910a a0bd
00000100: cfff 22bc ebec e9bd 7414 6d3e 67dd df3d
00000110: 6f58 39be ae8e e4bd 0477 9cbd 40d8 a4bd
00000120: 9cf8 dd3d 61c3 473e a1ed 6f3d c61f ed3d
00000130: ec0d 283e 1694 813d 31a1 65bd 1812 4f3e
00000140: 8dc1 adbd 3901 9b3d 31dc 823c 6f9e e3bd
00000150: b972 8dbd 92b7 123e f929 33be a4d3 273d
00000160: 72e6 adbc 762e a3bd b92e 8bbe 116a ba3d
00000170: 0206 d2bd 9b4c 47be 3f68 15bd f8c8 303e
00000180: 4ebb a13d 54a0 023e b4af 6f3e cd64 2ebe
00000190: 54fe d73d c1dd 513e 2f16 073d 77e9 7f3d
000001a0: eeb0 733e 99e7 523c 9ac7 ccbb e2b5 a03d
000001b0: 3eac 613e 54d1 c0bd cd0a 59be de71 1a3e
000001c0: 8df3 31be 4da7 e9bd d7ac 20be 12e5 72be
000001d0: b319 d13d 39ce f93c dd64 eebd 7d30 853e
000001e0: e903 6f3e ca5a 7dbe fecc 60bc e4f5 8c3d
000001f0: bd7c dabd 8ed6 9cbd 9572 efbd 5fbd 9e3d
00000200: a012 803e 0a03 5d3e e87d 203d fcb9 6f3e
00000210: 0418 e33d e4e7 2a3e ba1c 2bbe 6388 243e
00000220: aff5 75bd 6fd1 3f3e e785 db3d 441d 373e
00000230: ecfd f13d 86e6 1b3d ca68 b7bd 6125 253e
00000240: 8c1d 0ebe c75d 833d 0a1c 5abe 46cc 933b
00000250: 488e 0a3d d957 3d3e be21 0dbd 55f4 253e
00000260: 83a2 b73d 4b1a 683c a277 603e 08e0 323c
00000270: c6b2 013e a561 1b3d bba6 70be 5c61 0b3e
00000280: 57e5 0cbe a158 24bd 2a99 fdbd 7adc 7dbe
00000290: 69e3 abbd acf5 bb3d cf80 e43d a820 663e
000002a0: bd3e 4ebe 00c8 e03d 0343 36be cc70 a4bd
000002b0: 718c 1ebe b7bd b9bd 194c fc3c 809e cf3d
000002c0: 54cb 493e 920c 7abe 151c f3bd 4191 b83b
000002d0: 2496 5bbe 13c5 45be 685c 7abd 0f92 2dbe
000002e0: 767a fa3d d73f 68be 4e12 90bd 81b8 74be
000002f0: 5dae 50be b8d0 79be b46c 703e 31e2 7b3c
00000300: 1e6b 143e 7bfb 773e cbb6 cd3b 9f2b 673e
00000310: 9ff3 04be e7fa edbd e448 cebc dabd 3ebe
00000320: cdb4 0bbe ebd8 e03d e7c2 523e 5794 e63c
00000330: b5c2 ba3d 5662 11bd 1cca 6bbe b0e2 92bb
00000340: 1104 5b3e 5d94 c5bd f15f c03d 62cd 3bbc
00000350: 9eb1 5c3e 964a 55be fd71 883d e542 a9bd
00000360: b32d 813d 03b0 70be 6ec1 a1bd 5d9f 09be
00000370: 4541 51be eb14 84be 8b77 d6bd efd1 2cbe
00000380: 5d93 eebd e7ba 30bd 2016 9cbd 0217 1dbe
00000390: c056 a1bc bc17 413d b16e 343c 7519 cebd
000003a0: 2b3f 39be f9a8 cfbd f29c 203e 3a5b 9b3d
000003b0: c4b3 273d 907b 35bd 8aca 3e3e 9552 ed3d
000003c0: f3a0 e83d 1cde f1bd 9017 f83d 9715 1a3e
000003d0: e853 a7bd 4cff 7a3e fb4e 33bd 5332 b73d
000003e0: 6eed 163e 4aa8 4e3e 238b 8bbc 876b 73be
000003f0: 6707 1d3e 97df ec3d 5f87 d23d 2933 f93d
-0.23326094 -0.085631974 -0.09412126 -0.0045369444 -0.123885065 0.117006615 -0.045886666 0.23408124
0.17301795 -0.23463559 0.04065825 0.18992494 0.24965285 0.09928774 0.24934098 0.17431484
0.12589084 0.14636636 -0.022573315 0.103698686 0.20395066 -0.19192375 -0.25940147 0.11939092
-0.14876498 -0.19795072 0.08343046 0.04626971 -0.09829396 -0.03302638 -0.07796035 -0.1317558
0.20926507 -0.14545617 0.21525061 0.18821068 -0.013620971 -0.18003875 0.0026878917 0.035015117
0.23862761 0.0021368687 -0.21291362 0.04710355 0.2024107 -0.14846618 -0.13462849 0.009970277
-0.09721136 0.0033166877 0.099244565 0.13689123 -0.16222605 -0.16715616 0.19651997 -0.14900042
-0.119039804 -0.21421789 0.018670155 0.055512685 0.2561727 -0.03443551 -0.076582626 -0.078145154
-0.009948685 -0.11422142 0.23152333 0.10930901 -0.18100141 -0.111600265 -0.07639888 -0.08049059
0.10838434 0.19508125 0.05857623 0.11578326 0.16411561 0.06327073 -0.056061927 0.20221746
-0.084841825 0.075685926 0.015974136 -0.11114203 -0.06906647 0.14327839 -0.1749648 0.04097332
-0.021228049 -0.07967846 -0.27184084 0.09102262 -0.10255052 -0.19462816 -0.03647637 0.17264163
0.07897054 0.12756473 0.23406869 -0.1703064 0.10546556 0.20494749 0.03298014 0.06247851
0.23797962 0.0128726 -0.0062493803 0.078471914 0.22038361 -0.09414926 -0.21195526 0.150825
-0.17378063 -0.11408863 -0.15690933 -0.23720196 0.1020998 0.030493842 -0.11640332 0.26013556
0.23341335 -0.24741665 -0.013720749 0.068828374 -0.10668323 -0.076581106 -0.11691777 0.077509634
0.2501421 0.2158319 0.039182574 0.23410791 0.11088565 0.16690022 -0.16710177 0.16067652
-0.060048755 0.18732236 0.10718899 0.17882258 0.1181601 0.03806164 -0.08955534 0.1612754
-0.13878459 0.06414371 -0.21299759 0.0045104353 0.033827096 0.18490542 -0.034456007 0.16206487
0.089665435 0.014166425 0.21920636 0.010917671 0.12665853 0.037934918 -0.23501103 0.13611358
-0.13759361 -0.040123586 -0.12382729 -0.24791136 -0.083929844 0.091777176 0.11157381 0.22473395
-0.2014112 0.10975647 -0.17799 -0.08029327 -0.15483262 -0.09069388 0.030798005 0.10137653
0.1970647 -0.24418858 -0.118705906 0.00563255 -0.21443993 -0.19313459 -0.06112328 -0.16950248
0.12230389 -0.22680603 -0.07034741 -0.23898508 -0.20379014 -0.24396026 0.23478967 0.015373752
0.14493987 0.24217026 0.006277894 0.22575234 -0.12983559 -0.116201214 -0.025181241 -0.1862711
-0.13643189 0.10978874 0.20582162 0.028146906 0.09119169 -0.03549417 -0.23026317 -0.0044825897
0.2138827 -0.09647439 0.09393299 -0.011462541 0.2155213 -0.20829234 0.066623665 -0.08264712
0.063075446 -0.23504643 -0.07898222 -0.13439699 -0.20435055 -0.2579721 -0.1047202 -0.16876958
-0.11649201 -0.043146994 -0.076214075 -0.15340808 -0.019694686 0.047141775 0.011012719 -0.10063449
-0.18090503 -0.10139651 0.1568487 0.075857595 0.040942922 -0.04430729 0.1863195 0.11588017
0.113588236 -0.11809942 0.12113869 0.15047298 -0.08170301 0.2451145 -0.043776494 0.089451455
0.1473901 0.20181385 -0.017034119 -0.23771487 0.15334855 0.11566084 0.10279726 0.12167961

weight f4 [4, 16]
00000000: da2b a7bc 2959 733e f87d 8abc 35e1 60be
00000010: 566d dbbb a435 75bd 28a2 333e c76f f63b
00000020: e066 783e dbd8 f93d 25aa 65be 05c5 fcbd
00000030: 6d6d d03d 2e22 af3d c02e 883d d2fa 0a3e
00000040: 454c 66be 2011 923d f75e 3a3e 2466 313d
00000050: 7965 c03d 1a4d 1ebe 9030 9ebc 23a6 67bd
00000060: 01b8 733e 8a70 a93d 1a3f 023e 247d 7c3e
00000070: 5cbb f9bb 027f 713e 6f80 07bb 36ea 26be
00000080: 7c75 76be 93bc 593b 9aee 04bd dcf9 253e
00000090: e42e 173e 9b1f 8bbd 1f2f 98bd 067b 7c3d
000000a0: 89b7 34be 2fc2 a1bd e80b 763e e683 ac3d
000000b0: 2ae7 41bc ab51 37bd 5e83 333e 146b a73c
000000c0: a6e9 18be f97a 043e 5aa8 d5bc 7a4b 823e
000000d0: b1f4 943d d115 5e3e 3f79 d33c d0dd 713e
000000e0: 5841 03be 7018 c6bd 4a82 363e b4b0 6e3d
000000f0: fba9 eebb 2123 7a3e abac babd 038b 153e
-0.020406652 0.2376448 -0.01690577 -0.2196091 -0.0066963835 -0.05986561 0.17542326 0.007520649
0.24257994 0.12199565 -0.22428186 -0.12342266 0.10177121 0.08551441 0.06649542 0.13572243
-0.22490032 0.071321726 0.18200289 0.0433103 0.093943544 -0.154591 -0.019310266 -0.056554925
0.2380066 0.08273418 0.12719384 0.24657112 -0.007621212 0.23583606 -0.0020675918 -0.16300282
-0.24068254 0.0033223971 -0.03245411 0.16208595 0.14763981 -0.06793138 -0.07430863 0.06164076
-0.17648138 -0.07898366 0.2402798 0.08423595 -0.011834899 -0.04475562 0.17530581 0.020436801
-0.1493288 0.12937535 -0.026081253 0.2544821 0.07273234 0.2168801 0.02581465 0.23619771
-0.12817895 -0.0967263 0.17823139 0.058273986 -0.007283447 0.24427463 -0.09114965 0.1460381

weight f4 [16, 128]
00000000: 7eeb 9d3d e751 dcbd fdf5 923b e27c e8bd
00000010: c4f9 bdbb 9030 9fbb e051 ae3c c712 30bd
00000020: aaaa 9dbd 637c 56b9 6ede c33c 990f 2f3d
00000030: 11f5 b8bd be5c 333d d335 95bd 8bc5 17bd
00000040: 82ca 85bd 1013 403d d554 8f3d 63cc 52bd
00000050: 232c 1fbb a3e3 863b 525b 6abd e29a 8ebb
00000060: bcb1 c03c 27fb a0bd 43dd 023d 6389 78bd
00000070: 062e a73c c719 b0bd 4bef 843d 6d5c 74bd
00000080: be4d 1abd 956a c4bc ca73 56bd cf8b 8a3c
00000090: ef6e 943d f6dc abbc 31e2 07bd 8d7e b43d
000000a0: b751 bc3d 2387 91bb 4430 793d 7900 92bd
000000b0: 18b4 13bd d241 803d abd9 8ebd 8b43 543d
000000c0: 349c a2bd ce65 f63c 7bab 7a3d 5df8 4cbc
000000d0: 1b56 14bd 1a53 90bd c50c 68bd d293 7bbd
000000e0: 3321 26bb 4e4d 80bd 21e2 003b 9f4d d13c
000000f0: 9432 9a3d 35f4 bc3c ae38 2f3d e8db debc
00000100: 7c78 c2bc cc3f b33b 7c28 3a3d 00b6 58bd
00000110: aeac 6e3d fcff 47bd cee0 a2bc 9693 923c
00000120: cbfe 0f3d 6fa4 9d3c 2448 2cbc 6652 f7bb
00000130: b9ae b53c 08c6 a83b c45b 9a3c 8a91 e7bb
00000140: 5ac6 19bd 860f ad3d e37d cabc 3bc0 98bd
00000150: f12e 81bd 7dc6 113d 11f7 bbbb 5544 fcbc
00000160: ef8f 583c 671f da3b 5004 68bd db41 163d
00000170: 8a99 363d 9ec4 5bbd 7720 ffbb 4bdd 81bd
00000180: cee8 c6bd 26ec 5a3d 63cc 5d3d fabc 79bd
00000190: 1a72 7cbd 4b2f ce3d 3844 493c e8d5 903d
000001a0: c93c 2bbd 37b1 3c3c 17a3 1f3c 4a6d 17bd
000001b0: 0705 e7bc be7d 5f3d 1dc0 4bbd 6652 2a3c
000001c0: 2e49 b93d a72f b4ba 8a6e 443c fc23 dabc
000001d0: d751 823d 6432 d53c c53d 503d 6632 39bd
000001e0: 5fc1 1ebd b9ec 603d 4873 3d3d 8d1f 3dbd
000001f0: 523c 263c cee8 0cbc 3368 9dbd 8fb3 be3c
00000200: a735 7b3d c8e3 59bc c29a c0bd 282e c0bd
00000210: 6e79 063a cc58 84bd 9e46 b43d a7fb 433c
00000220: d52e 4c3d 7c4f af3d 5f0c 9bbd 3e66 37bd
00000230: 6b4b 153a 52a7 d5bb 52be 9dbc c199 763d
00000240: 2c80 553d e745 8e3d ceb3 f23c 49b3 e3bb
00000250: 8817 973d c9da 34bd 8fad 963d be64 88bc
00000260: 74c3 083d 5f28 7b3d afbe 2dbd 8985 26bd
00000270: 423b 8ebc 4912 b23c 9642 a13d bf5b 6b3d
00000280: c902 933d b845 65bd 64bc 8ebd f6fc 66bb
00000290: 2a3b 83bd f05c 703d 3207 3a3b f324 d33c
000002a0: 3129 5e3d fbeb 5fba 53a9 403a 3335 2ebd
000002b0: 46d5 923b 6e03 5ebd 4054 86bc cbf6 903a
000002c0: 315c 2c3d f2d5 393c 93e0 7fbd b199 a43c
000002d0: aeb7 a53d 4a0b 113d b7d6 2fbc 9295 bb3d
000002e0: 886f d13d 1d59 6d3d cda1 da39 214e e13b
000002f0: a24b 6dbd a190 9dbd e297 72bd ac4d a7bd
00000300: 2198 fb3c bb61 c53c f5bc 8e3c 399c 603d
00000310: e3b4 483d b86d 21bd 2e02 563d 8278 aa3d
00000320: 27c2 0dbd 9e42 8c3c 407c f7bc 6887 993d
00000330: 3072 bf3d 06e4 65bd 9a2a 0d3d 0924 23bd
00000340: c5fc 253d 5018 5abd 841e 813d 267e 95bb
00000350: b577 4cbc 2c3d 95bd d17f 4ebd ed30 62bd
00000360: d9d2 49bd fa52 81bd 6429 923d 5bad 103d
00000370: e122 3abd 6ee3 ab3c 2d10 933d b79b 773d
00000380: 89ea 4d3d 713c a4bd 2381 9dbd e88c 7ebd
00000390: 60c9 9e3d 75f0 86bd fec4 ef3a 34a9 053d
000003a0: 498f 193d 4e76 cd3a cb3f efbc 5f22 44bd
000003b0: f21a 0fbc 8e79 373d e060 4b3d 04bb 10bd
000003c0: 1446 a43d 50a2 60bd bf59 d2bc 016a e5bb
000003d0: 0be6 7abd ba75 1abd c9fa e73c c63c eabc
000003e0: 8ab4 84bc 109b 91bd 1a3a 97bc bdfe b2bc
000003f0: 99d7 1f3d 69cb b33d 3383 2fbd 56cd 893d
0.07710932 -0.10757809 0.0044848905 -0.113519445 -0.0057975966 -0.004858084 0.021279275 -0.042986657
-0.07698567 -0.00020454968 0.023909774 0.042739484 -0.09031118 0.043789618 -0.07285657 -0.037053626
-0.06532766 0.04689318 0.06998602 -0.05146445 -0.0024287782 0.004116492 -0.057215996 -0.0043519596
0.02352225 -0.078604035 0.031949293 -0.060677897 0.020407688 -0.08598667 0.06490954 -0.059658457
-0.037671797 -0.023976604 -0.05235652 0.016912369 0.072477214 -0.020979386 -0.033174697 0.088132
0.09195273 -0.0044411584 0.060837045 -0.071289964 -0.036060423 0.06262554 -0.069751106 0.051822226
-0.0793995 0.030077841 0.061198693 -0.012510386 -0.03621493 -0.070471 -0.056652803 -0.06142027
-0.0025349378 -0.06264745 0.0019666033 0.025549708 0.07529178 0.023065666 0.042778663 -0.027204469
-0.023739092 0.0054702517 0.045448765 -0.052907944 0.05827015 -0.04882811 -0.019882586 0.01789264
0.0351551 0.019243447 -0.010515247 -0.0075476645 0.02217804 0.0051505603 0.018842585 -0.00706691
-0.03754268 0.084502265 -0.02471823 -0.0745854 -0.063077815 0.035589684 -0.0057362397 -0.030794302
0.01321791 0.0066565755 -0.056644738 0.0366839 0.04458002 -0.053654306 -0.0077858525 -0.063410364
-0.09712373 0.053447865 0.054149996 -0.060971238 -0.061632253 0.10067614 0.012284331 0.070720494
-0.041806016 0.011516861 0.0097434735 -0.03696946 -0.02820064 0.054563276 -0.04974376 0.010395622
0.09047161 -0.0013747112 0.011989245 -0.026628487 0.06363266 0.026025005 0.050840158 -0.04521408
-0.03875863 0.054913256 0.04625252 -0.046172667 0.010146217 -0.008600427 -0.0768589 0.02327898
0.061330464 -0.013298936 -0.09404518 -0.093838036 0.0005129789 -0.06462249 0.08802532 0.011961854
0.04984935 0.08560082 -0.07570719 -0.04477524 0.0005695137 -0.0065201903 -0.01925579 0.060205225
0.052124187 0.069469266 0.029626753 -0.0069488627 0.07377535 -0.044153962 0.073573224 -0.0166496
0.033389524 0.061317798 -0.04241818 -0.040654693 -0.01736224 0.021737235 0.078740284 0.057460543
0.071782656 -0.055974692 -0.069695264 -0.0035245991 -0.06407769 0.058682382 0.0028385636 0.025774455
0.054238502 -0.0008541939 0.000734945 -0.042531203 0.0044809906 -0.05420249 -0.016397595 0.0011059878
0.042080108 0.011342512 -0.06247003 0.020092817 0.08091675 0.035411157 -0.010732344 0.09159388
0.10226351 0.057946313 0.0004170075 0.006875769 -0.057933457 -0.076936014 -0.059226878 -0.081691116
0.03071219 0.024094453 0.017424086 0.054836486 0.049000632 -0.039411277 0.052248172 0.08323766
-0.034608986 0.01712161 -0.030210614 0.0749653 0.093479514 -0.056125663 0.034464456 -0.039829288
0.040524263 -0.053245842 0.063046485 -0.004562157 -0.012479712 -0.07287058 -0.050414864 -0.05522244
-0.049273346 -0.06314655 0.07136801 0.035321575 -0.04544342 0.02098247 0.0718082 0.060451236
0.0502725 -0.08019341 -0.076906465 -0.062146097 0.07753253 -0.06588832 0.0018292961 0.032632068
0.037490163 0.0015675516 -0.029205224 -0.04788434 -0.008734452 0.044793658 0.049652934 -0.035334602
0.08021179 -0.054842293 -0.02567756 -0.007001162 -0.061254542 -0.03770993 0.028317826 -0.028593432
-0.016199369 -0.07109654 -0.018460322 -0.021849984 0.03902397 0.08779032 -0.04284973 0.06728618

weight f4 [16]
00000000: c9a6 803f a777 7e3f d770 813f 72a3 7f3f
00000010: 4492 813f aad6 7f3f 4802 7b3f 6586 7f3f
00000020: f381 823f ed1e 7c3f ec83 7e3f 0430 7b3f
00000030: 1bf9 7f3f 3d36 7e3f 8727 7d3f af31 803f
1.0050899 0.99401325 1.0112561 0.9985877 1.0122762 0.99936926 0.98050356 0.99814445
1.0195907 0.9848469 0.99420047 0.9812014 0.9998948 0.9930151 0.9888844 1.0015162

bias f4 [16]
00000000: 403c 793c 9797 c43b 0bdf 6bbc f44a 393c
00000010: 7f2c 3f3c 02c1 3fbc 7468 ccbb be7e 1bbc
00000020: 2001 533c 8c93 b33a 4239 35bc 84a1 3a3b
00000030: 00d9 563b 8fca eb3b 9d44 a83c cf1e c4bb
0.015212119 0.005999516 -0.014396439 0.011309374 0.011668324 -0.0117037315 -0.0062380377 -0.009490667
0.012878686 0.0013700589 -0.011061015 0.0028477618 0.003278315 0.0071957777 0.02054053 -0.005985118

weight f4 [84, 16]
00000000: ecc8 8fbc 8204 a9bd 057b 1ebc f4ed 74bd
00000010: eab4 753e ba0f b03d 71a7 023e 5b06 333e
00000020: d2ab 5e3e 48fb a73d 5bd2 c5bd 5cca 1abb
00000030: 2036 f8bb 86a9 6b3e 11c5 74be 215a 013e
00000040: 318d 6d3d 8bae 633e 144f 623e 7c53 67be
00000050: d9ce 553e eb45 b73d 1bdd 11bb 2f3a 5a3e
00000060: a757 1b3e 58df c03d 363f 00be b483 10bd
00000070: 9af9 23be b022 2a3e a5a1 15be 2106 6bbe
00000080: ed6e 67bc e534 abbc 4f00 d83b 63dc 4d3d
00000090: 1ed3 b0bd f11d 61be 3bea a53a e589 73bd
000000a0: aa34 593e f407 613e 607b c33d c1be e1bd
000000b0: c031 053e 0356 a6bd d28b f43b 80d7 ccbd
000000c0: c625 27be 7d36 543c ebdd 55be e3a3 ce3d
000000d0: b275 563e 1ec0 90bd ac1a d63d 7848 6cbe
000000e0: 717b 3ebe 55d0 46be f3fa 503e 814c 433e
000000f0: 84c1 01bd 5fff 703d b36b 3d3d 3c0d bd3b
00000100: c06e 1d3e b586 fbbc 1c33 9bbd b4f6 43be
00000110: d868 60be aa9a 7e3d 7dc2 033e 582b 343e
00000120: 5d8d cbbd fcda 093e bb21 503e d383 c03c
00000130: ec64 843d 95a9 563d 666a 1fbe f831 803e
00000140: eadf d4bc 9a37 44bb 13ea ddbd b73d 84be
00000150: d724 553e 6ef2 673e 49b6 253d be4b 6dbe
00000160: 5888 b6bd f696 133e 8206 04be b148 30be
00000170: 3058 c8bc a3b1 803e 9051 9fbc b82b 7fbe
00000180: 0b1b 263e bc0c 583e fd92 c9bc 184c 5c3d
00000190: 7695 7d3d 39b9 4fbe 953c 25bd c3ec 103d
000001a0: 4a32 6d3e 5c41 523d bf45 6b3c df4a 67be
000001b0: 09e5 37be cdc2 cebd 03b1 82bd fb89 fd3d
000001c0: c1dc 423e 8af7 fc3d 223a 643b f6f4 063e
000001d0: 4c0f 663e bb6b 54bd 61b5 cf3d 2537 2abe
000001e0: 8314 4a3d ebe3 453e 88e9 cebd bb32 793e
000001f0: b940 863e ee17 743e 7d08 373e 0d96 b43c
00000200: 39f7 2b3e 80ae fe3c 96c6 3d3e eed9 01bd
00000210: 93b6 433e 386e 86bc 34a4 a23d f2e7 eabd
00000220: 9042 713e 9ff5 af3c 2d2c a1bd 8d01 eebd
00000230: db1d e2bc af3f 64be 800f 91ba 0357 863e
00000240: 2081 0ebe a9bf aebd 8ed3 d13d 7346 c1bc
00000250: 7f67 1c3e a1c8 763e b081 0b3e 9d2f 91bd
00000260: 112d 96bd 0f30 04bd df75 4fbd 32b6 3ebe
00000270: a01a 14be 6c0d 423e 4136 783e 3bee 05be
00000280: 53fb a73d 6a28 033e 6582 1a3d 5bc1 053e
00000290: a7f7 383e 5e21 04be c9c2 82be 869a 6b3e
000002a0: 390a 033e a670 64be eed2 86be 58ed 653c
000002b0: b704 d83d 0c8d 4ebe 4f95 56be 7620 71be
000002c0: 45f9 5d3e 068f 7e3e 52b3 203e cce7 263e
000002d0: 177f 33be d555 de3d 03b7 f23c 0e0b 213e
000002e0: 40ba 473e be8e 43be ba66 7ebd 5c1d 583d
000002f0: 7c0d b93b 216b 81be 30db a23d e48c 41bd
00000300: 847d e7bd 8421 d9bc befa f53d 6f19 2a3c
00000310: 826e c1bd bd1e 62be f733 6bbe a3b0 363e
00000320: b36b 343e 74bb 953d f752 133e a4ba 4abe
00000330: 9ef9 64be 2cb7 bd3d 3b28 c03d 12e9 713e
00000340: 364c 91bd 4e19 0fbe f98c 053e 16e4 173c
00000350: ca95 8cbc aaee 52bd 3ff0 87bd 0906 8bbd
00000360: e0a3 65be 723f 98bc 30ee 263d 6bf1 87be
00000370: f70a 13be 0673 66be 80a7 e23d 9447 69be
00000380: fd51 ec3d 8b2e 5dbe 28bb 4e3e bded d33d
00000390: aa82 303c c8f6 29be ca6a f3bc d882 13be
000003a0: 50ff 2bbe 12e8 a73c c2b1 91bd c083 d33d
000003b0: 8610 12be b4f2 0ebe fe98 d93c b6b2 513d
000003c0: d2d5 80bb 830a 97bc a1ad 86be cb52 da3d
000003d0: 91ad 923d e71c 33bd 06c1 06be 1b26 42be
000003e0: abdb 433e d87d 00be 2813 08be 6162 59be
000003f0: 3c2f 49bd f5bd b2bd 1457 8b3d 3489 7ebd
-0.017551862 -0.08252813 -0.009672885 -0.059797242 0.23994794 0.085967496 0.12759186 0.17482893
0.21745232 0.08202225 -0.09659263 -0.002361915 -0.0075748116 0.23013887 -0.239033 0.12632038
0.05799598 0.22234552 0.22100478 -0.2259044 0.20879687 0.08948883 -0.0022257033 0.21311258
0.15170155 0.094175994 -0.12524113 -0.035281852 -0.16013184 0.16614795 -0.14612444 -0.22951557
-0.014125568 -0.020899246 0.0065918337 0.050259005 -0.086340174 -0.21984078 0.0012658307 -0.05945768
0.21211496 0.2197569 0.09545016 -0.110227115 0.1300726 -0.08121874 0.007462957 -0.10002041
-0.16323003 0.012952444 -0.20885436 0.10089853 0.20943335 -0.070678934 0.10454306 -0.2307452
-0.18601777 -0.1941541 0.2040823 0.19072153 -0.03167869 0.05883729 0.046245288 0.0057694
0.15374279 -0.030703882 -0.07578108 -0.19137079 -0.21914995 0.062159218 0.1286716 0.1759466
-0.09939072 0.13462442 0.20325367 0.023500359 0.06464562 0.05240782 -0.15567932 0.25038123
-0.025985677 -0.0029940368 -0.10835662 -0.25828335 0.20814835 0.22651073 0.040457044 -0.23173425
-0.08912724 0.14413056 -0.12893108 -0.1721523 -0.024456114 0.25135526 -0.019448072 -0.24919021
0.16221254 0.21098608 -0.024606222 0.053783506 0.061910115 -0.202855 -0.04034098 0.035382044
0.23163715 0.051331863 0.0143598905 -0.22587155 -0.17958464 -0.10095749 -0.063814186 0.12379833
0.19029523 0.12351902 0.003482469 0.13179383 0.22466773 -0.051860552 0.10142017 -0.16622598
0.049335968 0.19325225 -0.10103136 0.24335758 0.26221254 0.23837253 0.17874332 0.022044206
0.16793527 0.031089067 0.18532786 -0.031701975 0.19112615 -0.016409978 0.079414755 -0.11470021
0.23560548 0.021479426 -0.07869754 -0.116213895 -0.027602127 -0.22289918 -0.0011067241 0.2623826
-0.13916445 -0.0853265 0.10245429 -0.023593163 0.15273856 0.24099971 0.1362369 -0.0708916
-0.073328145 -0.032272395 -0.05064952 -0.1862419 -0.14463282 0.18950433 0.24239446 -0.13079159
0.08202233 0.12808385 0.03772201 0.1306204 0.18063222 -0.12903354 -0.25539234 0.23008165
0.12796868 -0.22308597 -0.26332802 0.014033638 0.10547774 -0.20170993 -0.20955394 -0.23547539
0.2167712 0.24859247 0.15693405 0.16299361 -0.1752895 0.10856215 0.029628282 0.15726873
0.19504642 -0.1909742 -0.062109686 0.052762374 0.0056473594 -0.25277045 0.07951963 -0.047253504
-0.11303237 -0.02650524 0.12010716 0.01038204 -0.09444906 -0.22082038 -0.22969042 0.17840819
0.17619209 0.073111445 0.14387117 -0.1979776 -0.22360846 0.09263453 0.09382673 0.23624066
-0.07094614 -0.13974497 0.13042058 0.0092706885 -0.017161269 -0.05149714 -0.0663762 -0.067882605
-0.22425795 -0.01858494 0.040754497 -0.26551375 -0.14359652 -0.22504815 0.11067104 -0.22781211
0.115390755 -0.21599786 0.20188582 0.10348079 0.01077334 -0.16598046 -0.029714007 -0.14405382
-0.16796613 0.020496402 -0.07113983 0.10327864 -0.14264116 -0.13959771 0.02656221 0.051195823
-0.0039317394 -0.01843763 -0.26304343 0.10660323 0.071620114 -0.043728735 -0.1315957 -0.18959849
0.19126765 -0.12548006 -0.13288558 -0.21228935 -0.04911731 -0.08727638 0.06803718 -0.062142566

bias f4 [84]
00000000: 7a08 bfbd 508f e63d 222f c53d 24d7 9dbd
00000010: 473b 7ebe 7a9f 733e 09e3 463e c358 24be
00000020: c184 4d3e 57fb 64be 0625 363e 3323 613e
00000030: 4e8c 303d ed15 12be e60f 6e3e ed96 77bd
00000040: 0664 a43d 0ea5 3abe b9de a43d 96dc 713e
00000050: f0a0 3e3d 15ae 7d3d 50d4 e13d f62b 5c3e
00000060: 7481 cf3d 32c6 6b3d 385e 65be 7254 eebc
00000070: ccb1 653e a395 1fbe 7549 f83d a10a 8dbc
00000080: 8233 cb3d e191 eabd 15fd 523e da34 3a3e
00000090: 5875 613e e1f3 793e a858 d439 b4ef 273e
000000a0: 68b9 d6bd 2024 80be 28f7 5e3e 0afb 16bb
000000b0: b780 13be 1bc4 493e 4dc7 ba3c 2379 48be
000000c0: a6a1 863d 5a3f 203e 9450 09be ccc4 0dbe
000000d0: 14f9 713e 53b7 abbd da8f 38be d408 553d
000000e0: 8aa3 9dbc cc08 733d 8263 083e 52f1 4abe
000000f0: 3fe3 083e 4076 433e 156a 76be 95cc c13d
00000100: 3e1c d5bd 3ce1 41bd d36a 673e e10a babd
00000110: 8d35 273e a122 f1bd 7d19 553e f586 c8bd
00000120: 0288 173e 9916 343d f1d1 1e3e 323e cabd
00000130: 4254 0c3e 461a 26be 6942 3b3e 66c1 69be
00000140: f8de 573e 36db dbbd 9751 56bd 6fd9 b53d
-0.09327789 0.112578034 0.096281305 -0.077070504 -0.248273 0.23791304 0.19422545 -0.16049485
0.20070173 -0.22361504 0.17787561 0.21986084 0.043102555 -0.14266177 0.23248252 -0.06044667
0.080268905 -0.18227026 0.080502935 0.23619303 0.0465402 0.061933596 0.110268235 0.21501145
0.10132113 0.05756206 -0.22399223 -0.029093001 0.22431105 -0.15584426 0.12123386 -0.017216982
0.09921934 -0.114536054 0.20604356 0.18184224 0.2201742 0.24409439 0.00040501845 0.16400033
-0.10484582 -0.2502756 0.2177397 -0.0023037815 -0.1440457 0.19703715 0.022800112 -0.1957746
0.06573801 0.15649167 -0.13409644 -0.13844603 0.23630172 -0.08384576 -0.18023625 0.052010372
-0.01924302 0.05933456 0.13319209 -0.19818619 0.13367938 0.19088078 -0.24063905 0.09462849
-0.104057774 -0.04733394 0.22599344 -0.09084106 0.16329022 -0.11774183 0.20810504 -0.09791366
0.14797977 0.043966863 0.15509774 -0.09875144 0.13704017 -0.1622096 0.18287052 -0.22827682
0.2108115 -0.107351705 -0.052323904 0.08879363

weight f4 [16, 42]
00000000: 9fee 303d 018b 63bc ca50 01bd c05e 85bd
00000010: 4be7 aa3b 0fa0 b03d 98a6 ae3d e68c fdbd
00000020: 4393 7fbc 8e78 fabc 750b 0d3c 6ebe 29bc
00000030: 0f72 1d3e 50f8 0fbe 559a 86bd aea3 113e
00000040: d1a3 003e 1c9c 713d 0467 913d 89e0 afbc
00000050: 55a0 f4bd 1be1 e1bc be7f ccbc 6e43 e4bd
00000060: b585 92bd 70a9 93bd e74d 2e3d 03d7 893d
00000070: 7362 4abd d453 133d 4baa 8e3c 0b1c 38bd
00000080: d4dc ebbc 4edf 203e 9dfa 6d3d 55ae 303e
00000090: 6677 173e c8b1 a03c 9520 15be 9eef 343c
000000a0: 9d62 653d d0f5 16bd 4759 e2bd ba13 9e3d
000000b0: 6c32 26be 1f1b a53c cafb ec3d 776f 143e
000000c0: 4970 8abb 2af2 023e 904f 033e 9e6a dfbc
000000d0: 463a 2d3e 1133 083e f218 103d 316d 9ebd
000000e0: b11c 0f3d ec11 8cbd 65e9 a8bd accd 08be
000000f0: 2038 8fbd a3ee 2e3d 18cf 773d bfb3 b03c
00000100: 5167 eeba 2b6b 963b 9b13 183e 435d 463d
00000110: 0990 cdbd 1c6a 013e e31c 793d c62c aabb
00000120: ea7f a4bd 563c 46bd 0fba 0dbe 5bf3 833d
00000130: a456 b63d 154e d0bd 2a8d 99bd bc5f cc3d
00000140: c205 72bc 8c39 11be f99c 013d 6b6e ec3c
00000150: 80e0 14bd ca6f b53b e789 0abd f5d8 19be
00000160: 14db 67bd d3c8 20be 85c0 c53d 5883 25bb
00000170: b590 0abe c1b7 d9bd 8f72 eebd b7de e23c
00000180: 1362 0d3e 0188 4a3b e00d cf3b 7c75 fcbd
00000190: 4549 f7bd 4dbe e23d 28ba 7e3d e936 8fbd
000001a0: d8f0 b73d c88d 1c3e 93f2 e93d e061 023e
000001b0: 7b43 39bd 444a 283d aafc d9bd 6591 4cbd
000001c0: 535a dc3d f7e4 1dbe 4576 cd3d f043 853d
000001d0: 08fe 1a3b 89d9 f93d d7fd e53a c79e 58bc
000001e0: 65ce 55bd 2d05 3bbd de30 4f3d 6d73 80bd
000001f0: 82ff 9a3d 3d47 283e 6017 d4bd 8790 73bd
00000200: e43a 633b 09ab c83d b5f0 93bd a024 d4bd
00000210: 19ce c3bc 03f5 4abd e378 033e 6071 453d
00000220: 5edf 04be f9bf 033d d4b9 5bbc 5799 8e3b
00000230: 145c 3c3c e30d db3d 2eb0 0abe 7861 19be
00000240: 0f46 0fbe f86f df3d 6be2 0abe 2e68 0abe
00000250: 53ab 9a3d 0973 6cbd 996a 04be fa05 973d
00000260: b3ea 813c dede ec3c 814c 00be 710c 183e
00000270: 3b41 d3bd 0975 af3d 684d 1fbe 0cf5 183b
00000280: bbd9 17be 15cc 9e3d 7e0b 11be 934b 023d
00000290: eeb3 24bc be0d 9fbd 1dbc 16be 00f6 0abe
000002a0: 04c3 393d 7b72 fd3c 3099 e43c bf25 06be
000002b0: 152c b7bc bba7 323d 6424 80bd 93b2 f23d
000002c0: 27da 23bd 377a ff3d 6631 993d 3832 93bd
000002d0: 2b58 5239 a8ad a8bc eb20 0f3d 25e0 0cbd
000002e0: 7d20 063e 8857 cabd ddf1 d1bd b2f7 183e
000002f0: da4d 0e3d 333c 9fbd e152 bcbd f19a d8bd
00000300: 6efa 5d3d fe73 14bd a6e6 8f3d 186f 143d
00000310: 3e58 2a3a 415d 8dbd c0c8 edbd abfa 85bd
00000320: 2357 6d3d 48e7 32bd 027c 9bbc df00 203e
00000330: c504 d53c f8ae 553b cd9b a53d 71ec aebc
00000340: e87f 0a3e a4fa 6d3d a995 b6bc 127d d73d
00000350: 5204 8e3d 1d84 033e 2490 5dbd 463a 2c3b
00000360: 17ce 2cbd 55e5 033c 56bb 243d 9d40 3e3d
00000370: ad14 19be a910 7e3d 71e3 213d a5c5 33bd
00000380: 0068 113e 0b3c 15be 9de4 623c 3918 983c
00000390: 5ecb fcbd 1876 dcbc 23e3 dabd b98b ca3b
000003a0: 6f3b bb3d 2224 1d3e dff0 13bd 8273 0b3e
000003b0: e2db 35bd fbe1 04be b94c 56bd a1d3 17be
000003c0: e4c3 15bd e0d8 dc3c 4a4d 083d 04c9 c73d
000003d0: 1ff4 443d 2984 d63d 32c4 9dbd 6de0 e03d
000003e0: 3f13 0ebe e037 453d dccc 793d 5474 0f3b
000003f0: 083b debc 792c 693c ae40 c33d b802 123e
0.043196317 -0.013888122 -0.031571187 -0.06512213 0.0052155606 0.08624279 0.08527869 -0.1238039
-0.015599075 -0.030575063 0.008608689 -0.010360343 0.15375541 -0.14059567 -0.06572405 0.14222595
0.12562491 0.058986768 0.07099727 -0.021469371 -0.119446434 -0.027573159 -0.024963256 -0.11145674
-0.07154409 -0.07210052 0.042554762 0.06730463 -0.049410295 0.035968617 0.017415186 -0.04494862
-0.028791822 0.15710184 0.05810033 0.17254002 0.1479164 0.019616023 -0.1456321 0.011043457
0.056002248 -0.03685552 -0.110521846 0.07718606 -0.16230172 0.020154534 0.115714625 0.14495645
-0.004224811 0.12787691 0.1282332 -0.027272519 0.16916761 0.1330073 0.03518004 -0.0773567
0.03493947 -0.06839356 -0.082476415 -0.13359708 -0.06993127 0.04270805 0.060500234 0.021570085
-0.001818875 0.004590412 0.14851229 0.048428785 -0.10037238 0.12638134 0.060818564 -0.0051933257
-0.0803221 -0.048397385 -0.13840507 0.06442901 0.08903244 -0.10171143 -0.07497628 0.099791974
-0.014771881 -0.14182109 0.03164384 0.028861245 -0.036346912 0.005537008 -0.03382292 -0.15024169
-0.056605414 -0.15701608 0.09655861 -0.002525529 -0.13531764 -0.106307514 -0.11642944 0.02769409
0.13806944 0.0030903819 0.0063187927 -0.12327096 -0.12074522 0.11071453 0.06218925 -0.06992895
0.08981484 0.1528846 0.114232205 0.12732649 -0.04523037 0.04108645 -0.10643895 -0.049943347
0.107594155 -0.15419374 0.10032324 0.06507099 0.002364995 0.12199695 0.0017546964 -0.013221449
-0.052198786 -0.045659233 0.050583713 -0.06272016 0.075682655 0.16433425 -0.10356021 -0.059464004
0.0034672553 0.09798247 -0.072236456 -0.10358548 -0.023901986 -0.049550068 0.12839083 0.048203826
-0.12975833 0.0321655 -0.013411004 0.0043517756 0.0114965625 0.10696008 -0.1354377 -0.14978588
-0.13991569 0.10910028 -0.13562934 -0.13516304 0.07552209 -0.057726894 -0.12931289 0.07374187
0.015858984 0.028914865 -0.12529184 0.14848496 -0.10315176 0.085672446 -0.15556872 0.0023339419
-0.14829151 0.07753769 -0.1416454 0.031810354 -0.010052664 -0.07766293 -0.14720197 -0.13570404
0.045351997 0.030938378 0.027905077 -0.13100336 -0.022359887 0.04361699 -0.06256941 0.118504666
-0.04000297 0.124744825 0.07480125 -0.07187313 0.00020060006 -0.020590618 0.034943502 -0.03439345
0.13098331 -0.098799765 -0.1025121 0.14938238 0.034742214 -0.07775154 -0.091954954 -0.10576428
0.054193906 -0.03624343 0.070264146 0.03623876 0.00064981345 -0.069025524 -0.11610556 -0.06541952
0.05794443 -0.0436776 -0.01898003 0.15625332 0.02600325 0.003260551 0.08086357 -0.021352978
0.13525355 0.058100358 -0.02228816 0.10521902 0.06934418 0.12843366 -0.05409254 0.002627985
-0.04218873 0.0080502825 0.04021772 0.04644834 -0.14949293 0.062027607 0.039523546 -0.04388966
0.14199829 -0.14573686 0.013848451 0.018566238 -0.12343477 -0.02691178 -0.10687854 0.006181207
0.091421954 0.15345815 -0.036118384 0.13618281 -0.04439915 -0.1297683 -0.052319262 -0.14826824
-0.03656377 0.026958883 0.033276834 0.097551376 0.048084375 0.10474426 -0.07703437 0.10980306
-0.1387453 0.04814899 0.060986385 0.0021889405 -0.027127758 0.0142317945 0.09533821 0.1425885

bias f4 [16]
00000000: 0bec ec3b 6562 563d 472a babc d8f7 12be
00000010: c611 c33c 0e23 0cbe 48c4 1cbd 6e59 9c3d
00000020: a5e8 ccbd f79b 2b3d 9f71 19be cb5d 123e
00000030: 5488 653c 5579 b63d f6a5 c3bc 7830 01bd
0.007230287 0.05233993 -0.022725238 -0.14352357 0.023812186 -0.13685247 -0.038273126 0.07634245
-0.10005311 0.041896787 -0.1498475 0.14293592 0.014009554 0.08909861 -0.023882847 -0.031540364

weight f4 [16]
00000000: ed55 803f 8026 803f be3f 813f f014 7f3f
00000010: 4112 813f 36e6 7f3f b9bb 7e3f 5f8f 7f3f
00000020: 8a5a 823f 83bf 7b3f e364 7e3f fe7d 7a3f
00000030: c8a0 7e3f 1f97 7e3f deff 7d3f a4e9 7f3f
1.0026222 1.0011749 1.0097578 0.99641323 1.0083696 0.9996065 0.9950519 0.9982814
1.018388 0.983391 0.9937269 0.978485 0.9946408 0.9944934 0.9921855 0.9996588

bias f4 [16]
00000000: 6dc3 803c ac72 153c a84b 5cbc 019e e93b
00000010: ee7b 3f3c 0ba6 3fbc cb9a 0bbc 98ac 1dbc
00000020: 3319 6f3c b9e1 8dba 5b33 55bc a404 f73a
00000030: 7c23 bdbb 8d86 e73b 3074 463c 449d 02bb
0.015718186 0.009121578 -0.013445772 0.0071294312 0.011687262 -0.011697303 -0.008520792 -0.009623669
0.01459341 -0.0010824717 -0.013012732 0.0018845988 -0.0057720523 0.0070656002 0.012112662 -0.0019930163

weight f4 [384, 16]
00000000: 2cc9 8f3d b481 1cbe 73ec a73d 3680 83be
00000010: 4066 95bb 4063 9c3d 221a 973d 4610 d3bc
00000020: 2b37 80be bfce 04be a3cd 083e 9933 57be
00000030: eefb 3d3e a762 333d dcf3 0cbe 1e05 71be
00000040: eb6b 4c3d ce40 703e ac5b 44be 6b55 7abe
00000050: 766f 8ebd 7682 eb3d 49f9 c23d 70ab f83c
00000060: f203 1b3e ffc4 32bc ab71 67be d82a 4d3d
00000070: 0512 513e aacc 5cbe a93c 34be c59e 65be
00000080: cc0e 973c 4392 26bb 352a 063c 9d96 f2bc
00000090: 2afb 533e aaf4 dc3d 1f9b 19be 811f bebd
000000a0: 1edb 60bd a3d3 e13c e359 863d 8ada 383e
000000b0: 027e a9bd f4f3 2cbe 8fcf 3a3e 7fdf 2d3e
000000c0: 03e6 99bd 71d3 6cbe f826 06be a5ec 2ebe
000000d0: d9a3 c83d 70a7 dfbd 908d 513c cb79 703c
000000e0: 4e08 f23d 4192 59be 7e5a 773e 98f5 df3d
000000f0: cd0d 73be c809 a33d a353 0c3e b486 bfbd
00000100: 615a 5ebd 8b5b a8bd f82c 853e 3697 3e3e
00000110: efaa 86be 719e 78bd 4156 7dbd b1b9 143e
00000120: 580a 0cbe c434 f4bc c23f 823e c9a2 30be
00000130: 6b94 3bbe deaf 2d3d a616 14be 3988 dcbd
00000140: 7233 763e d515 543e 2e86 a3bb 0f51 d3bd
00000150: e58c d6bb c4eb 4e3e 5a9b f83d 9f2c 7cbd
00000160: 5942 20be 6838 2cbe bffa b63d 5d6d 233e
00000170: ceb2 28be c330 dbbd 9413 31be 3e1b 38be
00000180: 01e0 793e ad49 63bd 892a 69be 60f2 98bd
00000190: c58c 88bd 96cf 5bbd 7505 cbbb de5e 013d
000001a0: 4927 4c3e 9837 3c3e 93ea 80be ac6d 86be
000001b0: 3c2e f9bb 5b0b 453e b5c4 333e d033 6bbe
000001c0: a053 103e a3a9 69be 495d 273e 9404 6cbd
000001d0: c4f9 cd3d 57a7 4e3e cf63 72be ca9d 303e
000001e0: fa90 2e3d 6112 5dbe d8d9 2abe 7a13 2c3e
000001f0: 4e88 6f3e 9020 003e 9211 f7bd 885d ad3d
00000200: 75f0 47be 9023 5c3c b674 3e3e 65fa 68bd
00000210: 0a4a 6bbc 734f 733e 6428 10be 16e7 77be
00000220: 056f d0bd 764c f4bd ba76 5cbe 09db 1f3e
00000230: ed17 543e 2e72 07be 5a93 093e 14ea 293e
00000240: 3c0d e7bd 339a 703e b861 38bc 2a6e 7abe
00000250: 7169 6cbe 7209 09bd f8e6 303e 9620 36be
00000260: 4ad1 ccbc 274a 3fbd 0245 063c 1c1e c0bd
00000270: 990c f9bc 0567 81be bb2e 1cbe ae66 80be
00000280: 6d6e 4bbd 8276 633e 1acf edbc 6248 5a3d
00000290: 9e1c 033c 4b7d 1a3b b53b 0b3e 6d02 333d
000002a0: 3b33 f7bd 4e1d 72bd 51b8 b33d 0e1e 133e
000002b0: 4a06 133e cf9c 59bc 65d9 34be 1dc6 b9bd
000002c0: 811e bb3d d55d 3cbe 68ef 37be edff 7b3e
000002d0: 60e0 2a3e 8a9d 46bd 9136 a6bd 7b25 3d3e
000002e0: 9202 0bbe 7dd7 5e3e 7a37 a23d ce84 8ebc
000002f0: 26dc 11be 8dc7 bbbd e3c0 a0bd 791a 763c
00000300: d813 243e 97e9 5cbc 486f 713e 6ca5 26bd
00000310: f812 2e3e bb4f acbd ac71 7b3e 8231 523d
00000320: 56eb 613d 3f43 6ebe 819a 173e ac21 8fbd
00000330: b241 793d f563 0dbd 8227 81bd be17 04bd
00000340: e7f3 533d 6165 6bbe 4781 38be 59cd 713d
00000350: cd41 303e 6525 1ebe bf15 2bbe 9b62 423d
00000360: cf21 46be ed34 5e3d 3f68 ea3d f543 b8bd
00000370: 697a f8bc 8828 0c3d bffc 623e db2f 9cbd
00000380: bb68 8bbd e8a7 023e d3eb a93d d26f f8bd
00000390: fd49 1dbe 6ded 353e 927c f63d 1cfa e53b
000003a0: 1f67 693e 7eed 643e bcb8 183e 6a8b 553e
000003b0: 4bf6 22be 8849 fa3b 0d4d 8c3d ccfd 363e
000003c0: aa07 3abe ec0d 413e 27ee 68be b220 e4bd
000003d0: 105e c53c 2a9d 1bbe 9db3 23bc 493c ef3d
000003e0: 3c9a d13d fba6 073e bc37 9bbd feac b23d
000003f0: c545 5dbd 25de 07be 173e 1ebe 6821 2c3e
0.07020792 -0.15283853 0.08199396 -0.25683755 -0.0045593083 0.07636118 0.07378031 -0.025764596
-0.2504209 -0.12969492 0.13359694 -0.21015777 0.18553135 0.043795254 -0.137649 -0.23537108
0.049907606 0.23462221 -0.19175595 -0.24446647 -0.06954853 0.11499493 0.095202036 0.030355185
0.15138224 -0.010911225 -0.22601955 0.050089687 0.2041703 -0.21562448 -0.17601265 -0.22423847
0.018439673 -0.0025416769 0.008188774 -0.029612834 0.2070128 0.107888535 -0.1500058 -0.09283353
-0.054896466 0.027566737 0.06560113 0.18052116 -0.08275987 -0.16889936 0.1824324 0.16979788
-0.075145744 -0.23127533 -0.13100803 -0.1708246 0.097968765 -0.10920608 0.012790099 0.014677475
0.1181799 -0.21247198 0.24155614 0.10935515 -0.23735733 0.0796085 0.1370378 -0.093518645
-0.05428541 -0.082205854 0.2601087 0.1861237 -0.26302287 -0.060697976 -0.061849836 0.1452396
-0.13675821 -0.029810317 0.25439268 -0.17249598 -0.18318336 0.04240405 -0.14461765 -0.1076817
0.24043062 0.20711453 -0.0049903607 -0.10318195 -0.0065475577 0.20207125 0.12139006 -0.06156599
-0.1565031 -0.16818392 0.08934545 0.15959688 -0.16474459 -0.1070266 -0.17292625 -0.17979142
0.24401857 -0.055490185 -0.22770132 -0.07468104 -0.06667475 -0.053664766 -0.006195719 0.031584613
0.19936861 0.18380582 -0.25178966 -0.26255548 -0.0076043885 0.19242613 0.17555507 -0.22968984
0.140944 -0.22818618 0.16344179 -0.057621554 0.10057405 0.20181023 -0.23670886 0.17247692
0.04261873 -0.21589042 -0.16684663 0.16804305 0.2339184 0.12512422 -0.12063898 0.08465105
-0.19525321 0.013436213 0.18599209 -0.05687942 -0.014360914 0.23760776 -0.14077908 -0.24209246
-0.10177425 -0.11928646 -0.21529666 0.15610899 0.20712252 -0.1322715 0.13435116 0.165932
-0.11281821 0.23496322 -0.011253767 -0.24456087 -0.23087098 -0.033456273 0.17275608 -0.17785868
-0.02500214 -0.046701577 0.008195164 -0.09380743 -0.030401515 -0.2527391 -0.15252201 -0.25078338
-0.049665857 0.22213176 -0.029029418 0.053291686 0.008002428 0.0023573216 0.13596995 0.043703485
-0.12070318 -0.05910998 0.0877539 0.14366934 0.14357868 -0.013282015 -0.17661054 -0.0907099
0.091366775 -0.18395169 -0.1796242 0.24609347 0.16687155 -0.048490085 -0.081158765 0.18471329
-0.13575199 0.2176189 0.079207376 -0.01739731 -0.14244136 -0.09168921 -0.0784929 0.01502096
0.16023195 -0.0134834265 0.23577607 -0.040685102 0.16999424 -0.08413645 0.24555081 0.051316746
0.055156074 -0.2326784 0.14805032 -0.06988844 0.060853668 -0.034519155 -0.06306364 -0.032249205
0.051746275 -0.22987892 -0.18018065 0.059033725 0.17212601 -0.15443952 -0.16707514 0.04745732
-0.19348834 0.054249693 0.114456646 -0.08997337 -0.030331807 0.03421834 0.22166727 -0.07626315
-0.06807085 0.12759364 0.08296933 -0.12130703 -0.15360256 0.17766352 0.12035479 0.0070183408
0.22793244 0.22356221 0.1491422 0.20853963 -0.15914266 0.00763816 0.06850634 0.17870253
-0.18166986 0.18852967 -0.22747098 -0.11139049 0.024092704 -0.15196672 -0.009991554 0.1168142
0.10234496 0.13247292 -0.0757899 0.08724402 -0.054021616 -0.13268335 -0.15453373 0.16809618

weight f4 [4, 16]
00000000: b1be ba3d 1e28 cb3d 0f58 efbd d251 fbbd
00000010: 0fe6 043e b99d 27bd 26d5 1f3e a2c9 82be
00000020: 7ca5 f9bd f3d5 433e 5604 59be 70f1 babd
00000030: 8bc1 013e dec2 1bbe b339 c0bd 07d4 603e
00000040: 1d12 31bc 9058 61be 4157 35be db2b 46be
00000050: ac3c 8d3d 8e50 dbbb a935 633e e0d5 0c3d
00000060: b29d a93d 680f 1abe c8af 12be 433a 28be
00000070: 1103 7b3e 76c8 9e3d aadd 653e 7ac3 d53d
00000080: 1612 5c3e 551e 19be e013 5bbe c668 89bd
00000090: f3f4 b8bd 79bd bebd e48a 80bd d14c 85bd
000000a0: 8d65 30be b32a b23d 6e8e 6d3e e90e 3ebd
000000b0: 8223 4f3e 9f59 5d3e 7845 0f3d a16a 76be
000000c0: b8ae 48be 0601 873e 582f c23d 23af 823e
000000d0: bd77 373e bed0 e13d 0cc0 2ebe c44b 9dbd
000000e0: 0ba5 393e 7d0e 69bc 5649 2abc 3729 29be
000000f0: b593 bdbd 35bb 9b3d 0151 243e 12a7 653c
0.09118403 0.09919761 -0.11686718 -0.12271465 0.12978385 -0.0409219 0.15608653 -0.2554446
-0.12189767 0.19124584 -0.2119306 -0.09128082 0.12671487 -0.15211055 -0.09386005 0.21955882
-0.010807541 -0.2200644 -0.17709066 -0.19352667 0.06896338 -0.0066929525 0.22188438 0.034383655
0.08282031 -0.1504494 -0.14324868 -0.16428475 0.24512888 0.07753079 0.2244784 0.10437675
0.21491274 -0.14952977 -0.213943 -0.06709437 -0.09031095 -0.09313483 -0.06276491 -0.06508792
-0.17226239 0.086995505 0.23198864 -0.04640094 0.20228389 0.21616219 0.03497836 -0.24064113
-0.195979 0.26367968 0.09481686 0.25524244 0.1791677 0.110261425 -0.17065448 -0.07680467
0.18129365 -0.014224646 -0.010393461 -0.16519628 -0.092566885 0.07604066 0.16046526 0.014016883

weight f4 [16, 128]
00000000: 14dc 85bb 5f92 7c3d 3fe3 13ba 8d5e 21bc
00000010: 7675 3a3d af9b 40bc fd84 5f3c 1e6e 8abd
00000020: d722 c03d 6c59 8abd 76e7 aa3d 9fe1 d73d
00000030: 7b3c b73d 91b6 9cbd b7aa a7bb dfd2 ac3c
00000040: 5105 803d 29b4 04bd d841 9f3d dca8 b8bd
00000050: 8d4f 833d e3e4 5b3d af69 6cbd d895 febb
00000060: d3b3 983c 9dba 1b3d 8a2f 53bd ea24 953d
00000070: 8208 51bd f02b f33a f5b5 8b3c dbee 8cbd
00000080: d06c 54bd 896b 983b c860 acbd 89fe 05bd
00000090: 9adf 4c3d c974 d23c 3b60 86bc dd61 b0bd
000000a0: f89f fdbc 3820 6c3d 76af c2bb 3ed5 543d
000000b0: 4cfd bf3d cce0 62bb 9f90 8ebd bd21 1fbc
000000c0: c457 ad3d 645c 7cbb d075 63bd ae52 8cbc
000000d0: f2e7 6dbd 8188 3dbc c081 8d3b cc6c 37bd
000000e0: 583f 083d 31ef a3bd a8cf 97bd a84e 0e3d
000000f0: f5a2 413d a2d6 5bbd 49e7 23bc 369b 023d
00000100: 32c5 93bd f223 193d 9287 663d c88c adbd
00000110: c0ca c83c 77d8 9a3d 89e8 4b3d a5fb ca3c
00000120: dcc5 6d3d 7a89 93bd 2abf 1e3d 79b4 833d
00000130: cdfa 773d 0a6e 63bd fdee 70bd cbb3 9dbd
00000140: 751e 053c 47dd 0b3d 5003 853d 9be1 093d
00000150: 5bea 05bc 4b91 39bd a546 45bd c16e 2bbd
00000160: 14cc c23d d44c 72bd df37 21bd a400 8e3c
00000170: 89f6 99bd ab3c 423c aa24 ebbb 8394 4cbc
00000180: bb7f 073d 08db 22bd 50d8 a63d 9fb0 f73c
00000190: e5b1 a83d 8efe 433d 57de 8b3d ea33 8b3d
000001a0: 31ba febc a319 9fbd 7d4b 25bb fed9 9fbd
000001b0: 119e 823d f85b 07bc 1879 853d a2f5 a0bc
000001c0: 2ff4 aebc 23d3 73bd 382e 8b3d 4c26 42bc
000001d0: 17a8 213c ee40 8abd 7127 95bd ec89 aeb9
000001e0: b6a0 87bd b656 923c 1ade 07bb 41a1 1f3d
000001f0: 4dbf bebc 65c5 a13d 4bc0 56bd 7cad a7bd
00000200: 73f8 363d 9728 a1bd 3f96 b23c 4dc9 913c
00000210: 8106 c7bd 0e4f aabc 2d61 873d f096 083d
00000220: db4e 1bbd ad6d b7bd c1b5 b03d 01d5 063d
00000230: 4935 273d 4841 b63c 17c1 983c 0c3e 623d
00000240: 1f5f 3f3d 63c1 a5bd d813 e2bc 1eed 263d
00000250: e5d0 38bd 8372 b5bc a82b a83d d482 17bb
00000260: 02da dabd 29f2 bcbd 1cc4 283d efe8 653d
00000270: a118 bf3d bb97 e4ba f816 883c fb5c 203d
00000280: 4af5 bbbd 9cbc e93c d1e8 7cbb e5c5 26bd
00000290: 1fb4 b63c 73c6 873d 4a43 6cbd 8bc2 fc3b
000002a0: 76e6 93bd 320f 213d 6ccb bb3c b763 a73c
000002b0: 7555 10bc 205f 913d 8cf3 813d 4c78 993c
000002c0: 2f7c 31bd 4951 f2bb d992 ffbc e947 e63c
000002d0: 9010 9cbd f3e8 233d 2d9c 9bbc a044 5dbd
000002e0: abd8 b8bd bada 10bd f536 d23c b4e7 113d
000002f0: 0a11 a2bd 4001 18bd 509c a3bc ec05 8ebd
00000300: fcb6 7ebc cb65 46bd 1dbc a83c 405d 88bd
00000310: 651a 96bc a934 11bd fd48 5a3d 178a 093c
00000320: fe30 483c 14f9 713c 61df 97bd dba4 a03d
00000330: aa31 1abd e98b 563d bfe3 bdbd 3798 45bd
00000340: 00ff 88bc 014f 61bd 016a 2bbd 24b8 d6bc
00000350: 4c98 89bd 9783 403d 00ff c23c fd65 193d
00000360: 3216 92bd c20a 56bd b7b0 70bd 6a51 4fbd
00000370: 77d3 a83d 2182 babd f580 9fbc 9a16 72bd
00000380: aa7f f1bb 3c6c 49bd 0f5c 7abc bcf4 06bd
00000390: 11cc de3a b947 903d 9132 81bd e6f7 943d
000003a0: bc25 cbbd 60cf 813d 32d4 1abd 38a9 49bd
000003b0: 8f97 503d 75ed 07bb 082b 613d 9950 82bc
000003c0: 30ee e73c 04b4 61bd 551e bc3d eaa9 96bb
000003d0: 997c 2eba b988 a9bd 3408 45bd 338a 72bd
000003e0: 6996 1e3b c23d 2bbd 47bd 07bc 93f1 623d
000003f0: ac11 a5bd f396 11bd 5806 4b3c f25a 9abc
-0.0040850732 0.061663028 -0.0005641467 -0.009849203 0.045522176 -0.011755868 0.013642547 -0.067592844
0.09381645 -0.06755337 0.08344929 0.10541081 0.089470826 -0.07652009 -0.0051167863 0.021096645
0.06251014 -0.032398377 0.077762306 -0.09016582 0.064116575 0.05368508 -0.057717975 -0.0077693276
0.018640434 0.038019765 -0.05155901 0.072824314 -0.051033504 0.0018552523 0.017054537 -0.068814956
-0.051861584 0.004651491 -0.08416897 -0.032713447 0.05001793 0.025690453 -0.016403308 -0.08612416
-0.030960068 0.057647914 -0.0059413267 0.051961176 0.093744844 -0.0034618853 -0.06961178 -0.009712634
0.084640056 -0.0038507218 -0.055532277 -0.017129268 -0.05808253 -0.01156819 0.004318446 -0.04478149
0.033263534 -0.080046065 -0.07412654 0.03474298 0.04727455 -0.053671487 -0.010003873 0.031886302
-0.072153464 0.037387796 0.056281634 -0.084741175 0.024510741 0.07560819 0.04978231 0.024778197
0.05805002 -0.07203956 0.038756527 0.06430907 0.060541917 -0.055524863 -0.058821667 -0.077003084
0.008124937 0.034146573 0.064947724 0.03366242 -0.0081735505 -0.045304578 -0.048163075 -0.04185367
0.09511581 -0.0591553 -0.039359923 0.01733429 -0.07517726 0.011855285 -0.0071760016 -0.01248658
0.033080798 -0.039759666 0.08146727 0.030235587 0.08237056 0.047850184 0.06829517 0.06797011
-0.031094642 -0.07768562 -0.0025221996 -0.078052506 0.06377805 -0.008261673 0.065172374 -0.019648377
-0.02135667 -0.059527528 0.06795925 -0.011849951 0.009866736 -0.067506656 -0.072829135 -0.00033290626
-0.0662245 0.017863613 -0.0020731748 0.038972143 -0.023284579 0.07898978 -0.05242948 -0.081873864
0.044670533 -0.0786907 0.021800159 0.017796183 -0.097180374 -0.02078965 0.06610332 0.03334707
-0.037917 -0.08956466 0.08628417 0.03291798 0.0408223 0.022247925 0.01864676 0.055234954
0.046721574 -0.08093526 -0.027597353 0.040753476 -0.045121092 -0.02214933 0.08211452 -0.002311875
-0.10686113 -0.09225876 0.04120265 0.056130346 0.093308695 -0.0017440239 0.016612515 0.039151173
-0.091776446 0.028532319 -0.0038590918 -0.04071607 0.022302685 0.06629648 -0.05768136 0.007713621
-0.07221691 0.039321132 0.022924148 0.02043329 -0.008809437 0.07098222 0.06345281 0.01873412
-0.04333132 -0.007394944 -0.031197952 0.028110461 -0.076203465 0.04001708 -0.018995369 -0.054020524
-0.09025701 -0.035364844 0.025660971 0.03562136 -0.07913406 -0.037110567 -0.019971997 -0.06934723
-0.015546557 -0.04843692 0.020597512 -0.06658411 -0.018323133 -0.03545061 0.053292263 0.00839474
0.012218712 0.0147688575 -0.07415653 0.07843944 -0.03764502 0.052379522 -0.09271955 -0.048240867
-0.016723156 -0.055006985 -0.04184914 -0.026210852 -0.067185014 0.047000494 0.023803234 0.03745078
-0.0713314 -0.052256353 -0.05876228 -0.050614752 0.08243459 -0.09106851 -0.019470671 -0.059103586
-0.007369955 -0.049175486 -0.015280738 -0.03294824 0.0016998072 0.0704493 -0.06308473 0.072738454
-0.09919307 0.06338382 -0.03780002 -0.049233645 0.050925788 -0.00207409 0.05497268 -0.015907573
0.028311819 -0.055103317 0.09185473 -0.004597892 -0.000665614 -0.08278031 -0.048103526 -0.05921383
0.0024198538 -0.041806944 -0.008284873 0.055406164 -0.08060011 -0.035544347 0.012391649 -0.018842194

weight f4 [16]
00000000: 1768 803f 2d78 803f 444f 813f 858e 7e3f
00000010: 8d21 803f f50a 803f 7b06 7f3f dfbb 803f
00000020: c491 823f 2ed0 7a3f 78e9 7e3f f013 7b3f
00000030: b0aa 7f3f e8e2 7e3f c766 7e3f d503 803f
1.0031766 1.0036675 1.0102315 0.9943622 1.0010239 1.0003344 0.99619263 1.0057334
1.0200734 0.97973907 0.99574995 0.980773 0.99869823 0.9956498 0.99375576 1.000117

bias f4 [16]
00000000: 1576 873c 76cc 293c e642 66bc 3622 023c
00000010: 2bad 1c3c 8543 40bc 9581 e0bb 0f06 45bc
00000020: 2fcd 5a3c eb99 53bb b8d0 54bc 4691 d93b
00000030: 7689 58bc a3bf 553a 30c7 5d3c e538 0bbc
0.016535798 0.010363689 -0.014054036 0.007942727 0.009562771 -0.011734848 -0.006851385 -0.01202537
0.013354584 -0.0032287787 -0.012989216 0.0066396324 -0.013216367 0.0008153861 0.0135362595 -0.008497451
