model_save/TCN.pt (torch, 810360 bytes, 9 tensors)

weight_ih_l0 f4 [512, 5]
0.11202031 0.06356288 -0.027005045 0.11939345 -0.06240725 0.035980135 -0.06708741 0.08536995
0.09409022 -0.06992759 0.0988714 0.0049582613 0.061697718 0.034780875 0.022355696 -0.028905839
0.054372635 0.032442126 -0.056821495 0.0122071095 0.0019652941 0.015186543 -0.0539254 0.10228414
-0.047697347 -0.04019742 -0.023701439 -0.06334725 0.00505513 -0.10089468 0.15246774 -0.08200958
0.06424613 0.077683926 -0.07960462 0.053648066 0.0108059365 0.08099401 0.0058890954 -0.05297675
0.018933138 -0.023801489 0.044723514 0.07259605 0.029902298 -0.052708287 0.041206297 0.06480496
0.02822537 -0.029784977 -0.029853292 -0.026951503 -0.087586634 0.11470778 0.004360124 0.0591252
0.027383285 -0.011261481 0.075479805 -0.04700228 -0.012051053 -0.069001764 0.038136017 -0.04887644
0.007244395 0.0340137 0.08521512 -0.06490231 0.0006938008 -0.036058377 0.08410044 0.020505952
0.07795417 -0.06753838 -0.0989017 -0.042527862 -0.068213984 0.032035653 0.060226664 0.08100392
-0.018685387 -0.075063266 0.05398064 -0.012843748 0.078484625 0.006954687 0.03661828 -0.037634507
-0.022498738 -0.05481882 0.02576757 -0.018577108 0.04397622 0.07228979 -0.06400696 0.010278451
0.08418116 -0.041146565 0.021935094 -0.12040812 -0.033038255 -0.014449676 0.02298471 -0.05070624
-0.009613731 -0.07892694 -0.07283702 -0.04744656 -0.10243567 -0.07514084 0.13892634 0.032283008
0.0412427 -0.03217798 -0.047124654 -0.023513714 -0.002891805 -0.060844284 -0.027330967 -0.059878185
0.06485836 -0.050251205 -0.0039368705 0.00093307043 -0.08872402 -0.019807959 -0.036872886 -0.073304944
0.106365904 -0.002339743 0.10820783 0.062327985 -0.08826148 0.084640704 -0.032270208 -0.056933798
-0.07918458 -0.08343696 -0.016962279 0.0070110946 0.014490603 -0.07515312 0.06290207 -0.08521516
-0.039736427 0.085810974 0.056970473 0.051275294 0.14211676 -0.11463691 0.03857871 -0.02788266
-0.022612453 -0.054633904 0.058778144 -0.08235395 0.040313408 0.047934756 0.008646923 -0.056408826
0.12139131 0.026422951 -0.004568773 -0.035274826 0.040999357 0.0013024168 -0.025818622 0.059729204
0.027969908 -0.095753945 -0.0435414 -0.017282624 0.055644065 -0.023737364 -0.064065956 -0.062528685
-0.058293987 0.037882674 0.0381126 -0.10661143 0.03673467 0.054714672 0.004335931 -0.015095384
0.028873863 0.060359053 0.042975232 -0.018198425 -0.015093375 0.0023141396 -0.02424325 0.0054487037
0.050112646 0.06263307 0.005511938 -0.019986173 0.00783498 -0.008057818 0.016468486 0.010315487
-0.07888892 -0.058970604 0.10155572 0.03641535 0.008105805 -0.025894573 -0.041418955 -0.061287995
-0.00017776694 0.038770277 0.09678988 0.046132762 -0.08657787 -0.02147847 -0.04742055 0.09548937
0.013347883 -0.023001252 0.047658585 -0.03332901 -0.07103248 0.046836916 -0.031639673 -0.046902522
-0.08675841 0.090835005 0.06618827 0.034472395 -0.031784542 -0.07230389 -0.03266413 0.0614103
0.081264295 0.09698069 0.059198864 0.0735255 -0.0011415893 -0.08735769 -0.032863334 -0.14165221
0.07537936 -0.04468645 -0.03674721 -0.016753502 -0.02113829 -0.07150736 -0.04845423 0.026424548
-0.034451153 0.068783335 -0.030622996 -0.0509071 -0.029177263 -0.043128874 -0.03385755 -0.09273523
00000000: e76a e53d 412d 823d af39 ddbc 8e84 f43d
00000010: bf9e 7fbd e85f 133d 2065 89bd 71d6 ae3d
00000020: 60b2 c03d 3236 8fbd 177d ca3d e978 a23b
00000030: bfb6 7c3d 6476 0e3d 4b23 b73c f0cb ecbc
00000040: d7b5 5e3d 09e2 043d a8bd 68bd 5400 483c
00000050: 2acc 003b fad0 783c e1e0 5cbd 597a d13d
00000060: 4b5e 43bd 0da6 24bd 8529 c2bc 34bc 81bd
00000070: 81a5 a53b dfa1 cebd 8120 1c3e a4f4 a7bd
00000080: 7a93 833d c018 9f3d bf07 a3bd 13be 5b3d
00000090: 620b 313c 30e0 a53d 50f9 c03b 26fe 58bd
000000a0: ab19 9b3c 57fb c2bc 0130 373d 3dad 943d
000000b0: aaf5 f43c a5e4 57bd efc7 283d 76b8 843d
000000c0: e438 e73c a0ff f3bc e48e f4bc 66c9 dcbc
000000d0: 9f60 b3bd eaeb ea3d 5fdf 8e3b 442d 723d
000000e0: e952 e03c 1382 38bc 2895 9a3d 7685 40bd
000000f0: c871 45bc cc50 8dbd 8334 1c3d a932 48bd
00000100: 6462 ed3b f351 0b3d 4485 ae3d 81eb 84bd
00000110: 2fe0 353a f3b1 13bd da3c ac3d 19fc a73c
00000120: 70a6 9f3d 9051 8abd f98c cabd b231 2ebd
00000130: c6b3 8bbd d137 033d 3cb0 763d 62e5 a53d
00000140: 1912 99bc c5ba 99bd ce1a 5d3d 956e 52bc
00000150: 8cbc a03d 25e4 e33b 0dfd 153d a426 1abd
00000160: 464f b8bc b389 60bd 8316 d33c 052f 98bc
00000170: 6920 343d ab0c 943d 1516 83bd f366 283c
00000180: 2c67 ac3d 4d89 28bd 3ab1 b33c 8898 f6bd
00000190: 1f53 07bd 55be 6cbc 6e4a bc3c 59b1 4fbd
000001a0: e982 1dbc 73a4 a1bd 932b 95bd 5357 42bd
000001b0: cbc9 d1bd 71e3 99bd b542 0e3e 303b 043d
000001c0: 1bee 283d 0fcd 03bd c805 41bd d59f c0bc
000001d0: 7084 3dbb db37 79bd 31e5 dfbc d442 75bd
000001e0: 76d4 843d 35d4 4dbd dd00 81bb 4c99 743a
000001f0: f0b4 b5bd 4d44 a2bc 0608 17bd e720 96bd
00000200: 5ed6 d93d 6056 19bb 119c dd3d a14b 7f3d
00000210: 6fc2 b4bd 1b58 ad3d c42d 04bd 6a33 69bd
00000220: 862b a2bd ffe0 aabd 7af4 8abc 53bd e53b
00000230: fe69 6d3c e1e9 99bd cdd2 803d 4985 aebd
00000240: aac2 22bd aabd af3d df59 693d 0b06 523d
00000250: 0e87 113e c2c6 eabd b604 1e3d 2d6a e4bc
00000260: c03d b9bc cdc7 5fbd 5ac1 703d 30a9 a8bd
00000270: ac1f 253d 3c57 443d d3ab 0d3c f10c 67bd
00000280: 029c f83d f274 d83c a5b5 95bb 567c 10bd
00000290: f1ee 273d dbb5 aa3a 9381 d3bc 9ca6 743d
000002a0: 2621 e53c a51a c4bd 7858 32bd 4a94 8dbc
000002b0: 08eb 633d dc74 c2bc 0335 83bd 0a0f 80bd
000002c0: adc5 6ebd dd2a 1b3d f51b 1c3d 1857 dabd
000002d0: 1877 163d 7e1c 603d 6d14 8e3b a152 77bc
000002e0: e188 ec3c 0e3b 773d cc06 303d dd14 95bc
000002f0: 344a 77bc d2a8 173b c899 c6bc 0a8b b23b
00000300: eb42 4d3d c445 803d 7d9d b43b 0bba a3bc
00000310: 4a5e 003c f004 04bc ebe8 863c 4a02 293c
00000320: 8490 a1bd 298b 71bd 72fc cf3d 4328 153d
00000330: 36ce 043c db20 d4bc eca6 29bd 1f09 7bbd
00000340: f366 3ab9 95cd 1e3d c639 c63d b5f5 3c3d
00000350: bd4f b1bd 9ef3 afbc 0d3c 42bd ee8f c33d
00000360: 14b1 5a3c 1f6d bcbc a635 433d 0084 08bd
00000370: 7a79 91bd 11d8 3f3d 9a98 01bd dc1c 40bd
00000380: 65ae b1bd b407 ba3d b78d 873d ed32 0d3d
00000390: 8230 02bd 1014 94bd d3ca 05bd 5e89 7b3d
000003a0: e56d a63d d09d c63d 827a 723d 8a94 963d
000003b0: 61a1 95ba 97e8 b2bd b49b 06bd 470d 11be
000003c0: 7e60 9a3d 2409 37bd 3e84 16bd a43e 89bc
000003d0: 352a adbc 7372 92bd f177 46bd 4b78 d83c
000003e0: a71c 0dbd 47de 8c3d 14dd fabc f783 50bd
000003f0: 2805 efbc e7a7 30bd 37ae 0abd f8eb bdbd

weight_hh_l0 f4 [512, 128]
-0.02937501 0.059614945 0.061166767 0.024547663 -0.058038533 0.015132191 -0.02359188 0.105338156
0.030110978 -0.0020570206 0.01871644 0.0338957 0.021026315 0.06831021 0.04676776 -0.078253224
-0.011443675 -0.055112287 -0.06557422 -0.008341763 0.04189165 0.021116883 0.05835482 -0.04353426
-0.020241398 -0.016669137 0.022583058 -0.0057747234 0.044797238 -0.024143744 -0.06081828 -0.014072166
0.064939834 0.049547624 0.06456939 0.03879828 0.087575115 0.031614758 0.037766352 -0.040254578
-0.08133481 -0.053959034 0.057431348 0.06743948 -0.031953506 0.0797108 0.019964756 -0.025714027
0.00515171 -0.01902574 0.10756191 0.017677879 0.03661658 -0.040024176 -0.02393232 -0.0012183452
0.085626066 0.07401619 0.01489459 -0.0557786 -0.005067373 -0.05270174 -0.08692616 0.0028146333
-0.06592216 0.086189836 -0.043806583 -0.00088451727 0.056083933 -0.087736845 0.053627618 0.014147197
0.014138513 0.09129182 -0.055612817 -0.05854854 0.0691481 0.0306107 -0.03366174 0.096927434
-0.026034553 -0.004771531 0.0747099 0.06513646 -0.0665616 0.011749991 -0.08893495 -0.04713893
0.05947222 -0.05533764 -0.049679175 -0.02524512 0.020814238 -0.025232552 -0.08650974 -0.11359838
0.0228677 -0.051328618 -0.019219084 -0.027145714 -0.0778986 -0.028237483 -0.061373025 -0.07728697
0.024056748 -0.08191896 -0.058172934 0.048518404 -0.00029997525 -0.045310467 -0.039032064 0.09902221
-0.0590811 -0.024721198 -0.048240636 -0.005765579 0.024315026 -0.059103295 0.029293435 -0.06998683
0.05732721 -0.062434893 -0.038203742 0.04883297 -0.02435517 0.06666022 -0.04428349 0.01068338
-0.070163816 0.018265426 0.095102616 0.08805018 -0.027221287 -0.028838338 0.10349764 0.041245732
0.08466139 -0.0125596365 -0.063795835 -0.0769326 0.10723753 -0.02323185 -0.06138514 -0.016960187
-0.08849779 -0.029598387 0.039397955 -0.041682985 0.033228487 -0.026142916 -0.016299326 -0.058263067
-0.013274904 0.09115537 0.062692516 -0.0015610621 0.030316215 0.06308531 0.02491164 0.013240609
-0.013981414 0.09699959 0.09781932 -0.008057567 -0.0031743543 -0.053337272 -0.0019287657 -0.11336144
0.008840528 -0.031934936 0.042372044 0.020203106 -0.028570708 0.08250592 0.07587734 -0.070270665
0.12559268 0.048408516 0.08209634 0.002159393 0.05604839 -0.024787212 0.010504444 0.021820158
0.05707544 0.07015727 -0.079226404 0.10190368 -0.044295184 0.11486621 0.059487328 0.023502365
0.0520956 0.06365856 0.072717555 -0.064587966 0.09637763 -0.0007881631 0.08994144 0.014625818
0.032487657 0.10043003 -0.07629919 0.051149152 -0.08108041 -0.03771912 -0.111563295 0.062443417
-0.018059889 -0.05335088 -0.04916414 0.022267208 -0.09525598 -0.0066983523 0.000481966 -0.027640006
-0.049639963 0.0010011055 -0.057936523 -0.10633431 0.006377443 -0.009950351 0.032264065 -0.0656089
-0.042240724 0.06076426 -0.10077848 0.03678697 -0.07379349 -0.008362976 -0.044783007 -0.03159682
-0.0019643698 -0.08863455 0.063873574 -0.015040551 0.06940243 0.054101687 0.040050454 0.06308054
0.04812386 0.119411975 0.10534832 -0.08530707 0.023531377 -0.050682507 -0.029261982 -0.04769166
0.06269826 0.00250062 -0.008311812 -0.02969462 -0.03134295 -0.008896515 -0.043063205 0.0015869307
00000000: dca3 f0bc cd2e 743d 018a 7a3d 2e18 c93c
00000010: d0b9 6dbd 02ed 773c c243 c1bc 88bb d73d
00000020: 4cab f63c 14cf 06bb 3853 993c 38d6 0a3d
00000030: 613f ac3c 39e6 8b3d 8d8f 3f3d 3a43 a0bd
00000040: 407e 3bbc 6cbd 61bd c74b 86bd e4ab 08bc
00000050: 9496 2b3d 50fd ac3c 7705 6f3d fb50 32bd
00000060: 4ad1 a5bc b78d 88bc 1b00 b93c e439 bdbb
00000070: 4f7d 373d 1ac9 c5bc 971c 79bd f18e 66bc
00000080: 2dff 843d 73f2 4a3d f53c 843d f2ea 1e3d
00000090: 955a b33d 7a7e 013d e4b0 1a3d fce1 24bd
000000a0: dd92 a6bd 2604 5dbd 223d 6b3d b61d 8a3d
000000b0: aee1 02bd 6a3f a33d 218d a33c 39a6 d2bc
000000c0: adcf a83b dedb 9bbc 6b49 dc3d 33d1 903c
000000d0: 44fb 153d 64f0 23bd b60d c4bc e2b0 9fba
000000e0: b85c af3d cd95 973d 7008 743c 1a78 64bd
000000f0: 350c a6bb c8dd 57bd 5806 b2bd b675 383b
00000100: 3302 87bd 4c84 b03d 886e 33bd f3de 67ba
00000110: 44b8 653d 60af b3bd a2a8 5b3d a5c9 673c
00000120: 39a5 673c 35f7 ba3d 44ca 63bd 98d0 6fbd
00000130: 859d 8d3d 4ac3 fa3c e5e0 09bd e481 c63d
00000140: 6a46 d5bc 815a 9cbb 8101 993d 4466 853d
00000150: 7351 88bd 0983 403c 8723 b6bd c014 41bd
00000160: 2499 733d b9a9 62bd 647c 4bbd dbce cebc
00000170: 9f82 aa3c 7fb4 cebc 052c b1bd 44a6 e8bd
00000180: 0b55 bb3c f53d 52bd 5771 9dbc b060 debc
00000190: 4d89 9fbd 4b52 e7bc 4862 7bbd a248 9ebd
000001a0: a812 c53c 21c5 a7bd be46 6ebd 3cbb 463d
000001b0: ff45 9db9 7897 39bd 16e0 1fbd 28cc ca3d
000001c0: 06ff 71bd 1c84 cabc f997 45bd 2fed bcbb
000001d0: 4e30 c73c 4c16 72bd c9f8 ef3c 4155 8fbd
000001e0: f0cf 6a3d bbbb 7fbd 877b 1cbd 1505 483d
000001f0: 7e84 c7bc 2785 883d 9b62 35bd 5809 2f3c
00000200: 0cb2 8fbd 60a1 953c 29c5 c23d a753 b43d
00000210: 2dff debc 613e ecbc 92f6 d33d 49f1 283d
00000220: f362 ad3d efc6 4dbc 64a7 82bd d78e 9dbd
00000230: 5a9f db3d b850 bebc fc6e 7bbd 17f0 8abc
00000240: 543e b5bd 5178 f2bc c05f 213d c7bb 2abd
00000250: 981a 083d ab29 d6bc 2a86 85bc 41a5 6ebd
00000260: fc7e 59bc abaf ba3d ef64 803d 8d9c ccba
00000270: b659 f83c df32 813d 7f13 cc3c 24ef 583c
00000280: 4d12 65bc b9a7 c63d 7f55 c83d e303 04bc
00000290: d408 50bb 2f78 5abd a3ce fcba 0b2a e8bd
000002a0: ddd7 103c 35ce 02bd 4f8e 2d3d fc80 a53c
000002b0: 1e0d eabc ddf8 a83d 9465 9b3d 11ea 8fbd
000002c0: 5e9b 003e 0248 463d 2022 a83d 9a84 0d3b
000002d0: ff92 653d 8d0e cbbc d51a 2c3c 30c0 b23c
000002e0: f0c7 693d 9dae 8f3d 7441 a2bd e0b2 d03d
000002f0: de6e 35bd fa3e eb3d fca8 733d 0888 c03c
00000300: 3262 553d 6b5f 823d f1ec 943d b246 84bd
00000310: a361 c53d bb9c 4eba 3833 b83d 20a1 6f3c
00000320: c711 053d 42ae cd3d c042 9cbd c681 513d
00000330: 7c0d a6bd 5d7f 1abd 4c7b e4bd abc4 7f3d
00000340: 55f2 93bc 7486 5abd 5660 49bd b869 b63c
00000350: 9115 c3bd da7d dbbb 62b0 fc39 4b6d e2bc
00000360: 4653 4bbd 8737 833a d94e 6dbd cdc5 d9bd
00000370: dff9 d03b cc06 23bc 5327 043d f55d 86bd
00000380: 9c04 2dbd f2e3 783d f364 cebd efad 163d
00000390: 0b21 97bd dd04 09bc 636e 37bd ab6b 01bd
000003a0: a8bc 00bb 0886 b5bd 26d0 823d a56c 76bc
000003b0: dc22 8e3d bb99 5d3d f20b 243d 5f30 813d
000003c0: 861d 453d 448e f43d dcc0 d73d 79b5 aebd
000003d0: e0c4 c03c 7698 4fbd d3b6 efbc 5458 43bd
000003e0: f267 803d 71e1 233b 442e 08bc 2242 f3bc
000003f0: 7761 00bd b0c2 11bc 0b63 30bd 8f00 d03a

bias_ih_l0 f4 [512]
0.073155515 0.0910069 -0.05117587 0.03411576 0.06785839 0.09534735 -0.060103536 0.003919314
-0.042605907 -0.022277402 -0.03161567 -0.018484352 0.03211926 0.08043507 -0.052870918 0.077002145
0.08166836 -0.0076077073 -0.030404748 -0.037521258 0.11429069 0.054310985 -0.008353692 0.060824353
-0.041361686 -0.037458573 0.085470654 0.0122995665 0.10431534 0.024431875 -0.04465838 0.023317987
0.026937163 0.0967599 -0.00741122 -0.013490017 0.05177406 0.102247104 0.09627573 -0.028337732
-0.0012616987 -0.013860438 0.0030111764 0.024189683 0.012227932 0.048962478 0.095889896 0.0301472
0.022649214 0.08277311 0.020529145 0.019166987 0.039412465 -0.004758804 -0.024678139 0.057867758
-0.007988736 -0.055541772 -0.05980165 0.10691281 -0.044814784 0.02671932 0.0008634548 -0.043973073
0.05038703 0.10880783 0.043407626 -0.018144924 -0.034831014 -0.026862115 0.070014335 0.012658422
-0.007202484 -0.04572804 0.025968844 0.08966563 0.078551285 0.05322326 0.031185452 -0.039676435
-0.040973675 0.08581011 0.069768876 0.037334107 0.011748788 0.05184665 -0.032280274 -0.009694313
-0.031995874 -0.012833679 0.029389184 -0.014659199 -0.016609477 0.03500631 -0.07684456 0.102463834
0.039267614 0.05372416 0.0036859442 -0.029574197 -0.05471248 0.09616644 0.0798488 0.08061987
-0.0105053615 0.1162846 0.098052934 0.011379565 -0.021161452 -0.06329185 0.0018240808 0.0004709215
0.10158822 -0.04021105 0.021575019 0.09996438 0.106643066 0.11018054 0.07875502 -0.0028687215
0.07554409 0.011916748 0.02701774 -0.029201139 0.031090632 0.0675861 -0.02289719 0.121470645
0.019950258 0.054920904 -0.04576689 0.067380756 0.017667271 0.038076457 0.0420977 0.08090969
-0.039789222 -0.060800772 0.09118217 0.06520938 0.06016696 0.013653198 0.041096233 -0.044940326
-0.07049557 0.03927052 0.051976178 -0.014509176 0.070871554 0.07098759 -0.011548183 -0.034143098
0.058642305 0.041712854 0.089260355 0.09622509 0.037778515 0.07528093 0.059626963 0.047601033
-0.029698227 0.07036179 -0.039673638 -0.032631516 0.016152859 0.018255083 -0.037349086 0.015021178
0.07382131 -0.05605702 0.027288195 0.00905636 0.027489344 0.006365687 0.058716234 0.06500541
-0.01210003 0.073284835 0.003954314 0.02265005 0.042823114 -0.05829856 -0.055930886 -0.015803725
0.04618375 0.032675963 0.03858546 0.012176063 0.027562298 -0.053732757 0.0507484 -0.011834976
0.08108977 0.0032616244 -0.06710375 0.041914467 0.06476656 0.033536486 0.03672705 0.09298794
0.07280127 0.08489822 -0.04730612 0.111278355 -0.036965527 -0.030771563 -0.07497587 0.06803168
-0.041584697 -0.025568366 -0.021604829 0.0609882 0.009814281 0.0014438453 0.043680836 -0.0134080425
-0.044334024 -0.016122943 -0.02007436 0.049132217 -0.056767017 0.08356599 0.10810471 0.0031259991
-0.020908259 0.026617484 -0.011434732 -0.051631518 -0.030720329 -0.045706544 0.01914111 -0.035374977
0.025869574 -0.07990813 -0.026412273 -0.04031517 0.057345565 -0.0317221 0.116119966 0.015679123
-0.04099676 0.0023248885 0.091633506 -0.06443503 -0.025753213 0.08053107 0.030168317 -0.008850967
0.04822966 0.05987517 -0.036672197 0.09807263 0.049796905 0.010104719 0.019559665 -0.0030542882
00000000: 8fd2 953d d361 ba3d ca9d 51bd f8bc 0b3d
00000010: 57f9 8a3d 7945 c33d 202f 76bd 976d 803b
00000020: 8883 2ebd 197f b6bc 6f7f 01bd 7f6c 97bc
00000030: 7c8f 033d 24bb a43d 2d8f 58bd 4db3 9d3d
00000040: be41 a73d 134a f9bb 6113 f9bc e4af 19bd
00000050: 3d11 ea3d 3275 5e3d ecdd 08bc f522 793d
00000060: df6a 29bd 296e 19bd 3d0b af3d 1f84 493c
00000070: 48a3 d53d 5b25 c83c b5eb 36bd 5d05 bf3c
00000080: 53ab dc3c 0e2a c63d d2d9 f2bb 3b05 5dbc
00000090: 0911 543d ee66 d13d 362c c53d 8824 e8bc
000000a0: 955f a5ba e416 63bc 2857 453b 7129 c63c
000000b0: aa57 483c e18c 483d ec61 c43d 43f7 f63c
000000c0: d88a b93c f384 a93d bd2c a83c 1604 9d3c
000000d0: f76e 213d beef 9bbb cf29 cabc be06 6d3d
000000e0: 30e3 02bc c57f 63bd 93f2 74bd 1af5 da3d
000000f0: b58f 37bd 7ae2 da3c 7959 623a 1c1d 34bd
00000100: a162 4e3d a4d6 de3d 32cc 313d aaa4 94bc
00000110: f7aa 0ebd f00d dcbc ad63 8f3d 4565 4f3c
00000120: d102 ecbb 534d 3bbd 9dbc d43c 9da2 b73d
00000130: 7fdf a03d a200 5a3d a278 ff3c c283 22bd
00000140: 03d4 27bd 36bd af3d fce2 8e3d a6eb 183d
00000150: fd7d 403c 275d 543d 5238 04bd e5d4 1ebc
00000160: 1b0e 03bd 5a44 52bc 96c1 f03c 232d 70bc
00000170: 9910 88bc c762 0f3d ae60 9dbd 8fd8 d13d
00000180: 14d7 203d dd0d 5c3d e28f 713b 9645 f2bc
00000190: 321a 60bd e9f2 c43d c587 a33d 081c a53d
000001a0: ae1e 2cbc 9f26 ee3d facf c83d 5b71 3a3c
000001b0: c85a adbc 289f 81bd ff15 ef3a 04e6 f639
000001c0: 7c0d d03d 58b4 24bd 18be b03c 20ba cc3d
000001d0: ae67 da3d 56a6 e13d 504a a13d 2901 3cbb
000001e0: dcb6 9a3d 773e 433c 4f54 dd3c 3a37 efbc
000001f0: c8b1 fe3c 956a 8a3d e392 bbbc 9ac5 f83d
00000200: b96e a33c bef4 603d 1076 3bbd ecfe 893d
00000210: f4ba 903c 0ff6 1b3d a36e 2c3d fbb3 a53d
00000220: 06fa 22bd 3b0a 79bd b8bd ba3d 7f8c 853d
00000230: a171 763d aab1 5f3c 8654 283d 5913 38bd
00000240: fb5f 90bd 20da 203d f9e4 543d e5b7 6dbc
00000250: 1b25 913d f161 913d 9734 3dbc a2d9 0bbd
00000260: ea32 703d 19db 2a3d 22ce b63d a911 c53d
00000270: a5bd 1a3d e32c 9a3d 673b 743d 4df9 423d
00000280: b249 f3bc d819 903d d380 22bd a0a8 05bd
00000290: 0053 843c af8b 953c 5bfb 18bd 631b 763c
000002a0: a12f 973d 0c9c 65bd 7e8b df3c 2161 143c
000002b0: 5531 e13c 4197 d03b 6f80 703d 8e21 853d
000002c0: 343f 46bc 5c16 963d 3193 813b 998c b93c
000002d0: 4a67 2f3d 79ca 6ebd c917 65bd d076 81bc
000002e0: 2c2b 3d3d 3bd7 053d ca0b 1e3d 1c7e 473c
000002f0: 54ca e13c e116 5cbd 8edd 4f3d 7de7 41bc
00000300: 6512 a63d fac0 553b b16d 89bd 81ae 2b3d
00000310: 55a4 843d 8e5d 093d 1a6f 163d 7670 be3d
00000320: d518 953d 1edf ad3d 10c4 41bd e8e5 e33d
00000330: 2a69 17bd a514 fcbc f38c 99bd 3254 8b3d
00000340: b754 2abd c074 d1bc 9cfc b0bc c3ce 793d
00000350: 14cc 203c 693f bd3a adea 323d 68ad 5bbc
00000360: 9897 35bd 4314 84bc fc72 a4bc dd3e 493d
00000370: 8884 68bd a524 ab3d 0166 dd3d 90dd 4c3b
00000380: cc47 abbc e90c da3c be58 3bbc 927b 53bd
00000390: 33a9 fbbc c936 3bbd d1cd 9c3c 5ae5 10bd
000003a0: 6eec d33c e0a6 a3bd 8d5e d8bc 8521 25bd
000003b0: 2fe3 6a3d 08ef 01bd 4ed0 ed3d 8171 803c
000003c0: 38ec 27bd 285d 183b 59aa bb3d 83f6 83bd
000003d0: 67f8 d2bc 79ed a43d 8c23 f73c a503 11bc
000003e0: 778c 453d ab3f 753d 9635 16bd 4eda c83d
000003f0: d7f7 4b3d 438e 253c 973b a03c 742a 48bb

bias_hh_l0 f4 [512]
-0.02772779 -0.02729635 0.09464443 -0.032517105 0.040836155 0.093253516 0.10346978 0.105655394
-0.03564643 0.048091672 0.023195066 0.031121973 0.103363805 0.081431545 -0.06280491 0.099182375
0.096460775 -0.038145695 -0.056035303 0.098943815 -0.0021407187 -0.061039016 0.06987472 0.032196824
0.07724646 -0.040618025 0.117682666 -0.00013928299 -0.03398361 0.065920904 -0.035028834 -0.053817265
0.017873624 0.0395431 -0.016478866 0.011741021 -0.057963386 0.0764783 0.016251395 0.04467252
0.06957664 0.07928427 0.09550203 0.06341648 0.05476424 -0.043947622 0.09152049 0.018309442
0.069484636 0.107560866 -0.037496448 0.018643111 -0.033724595 0.015223384 -0.0031373347 -0.044101167
-0.009827816 0.056302972 -0.037622984 0.008839981 0.0825247 0.11268481 -0.056217294 0.09148801
0.025122453 0.05684929 0.080155276 0.089416504 -0.015262604 0.091045484 0.043573167 0.03040666
0.06245135 -0.07469879 -0.028653804 -0.06586299 0.03537812 0.053623967 -0.023592055 0.0577433
0.019592315 -0.015138646 -0.035235528 0.063778 0.03172666 0.067288816 0.10129577 -0.040568348
0.016401814 -0.00033602226 0.07542788 0.100083604 0.09838016 0.03317577 0.037299223 -0.015389899
-0.046924084 -0.05994152 0.057920102 -0.025671437 -0.021931851 0.049069297 -0.048526805 0.089039646
0.08274875 0.027398193 0.052849546 0.087938994 0.06874927 -0.071888156 0.059568096 -0.06644591
-0.037284736 -0.07190736 -0.015547242 0.012710703 0.02407628 0.040867347 0.03328748 -0.05684728
0.03761072 -0.014892185 0.07981064 0.102221146 0.036345713 0.013045954 -0.02097966 0.07894712
0.07755009 0.037115853 0.031322975 0.010519574 -0.022521535 0.009066346 -0.048808184 0.086670004
-0.038241833 -0.048801824 0.036778543 -0.0016963064 0.0059375465 0.10033118 0.05852214 0.077835344
-0.015014323 -0.014815424 -0.050900538 0.037990358 0.07738149 -0.039934844 -0.0192554 0.07608016
-0.020270383 0.047295008 0.0936735 0.07878973 -0.027249118 0.0019686376 0.077965975 0.10663164
0.07561908 -0.03154152 0.070096575 -0.009108642 0.09148568 -0.024704834 0.089946225 0.11207866
0.0066553103 -0.011788811 -0.05756643 0.0009800366 -0.021931287 -0.00057983515 -0.057216685 0.04482771
0.07329084 0.035284027 0.0374292 0.06825145 0.04856792 -0.02810808 0.049268827 0.008235444
-0.0038000252 -0.018160319 0.061146643 -0.05225973 -0.057043597 0.053311966 -0.064745255 0.04528091
-0.03892072 0.021420607 -0.021536754 0.07095619 -0.007578458 -0.017996296 0.052780803 0.008911363
0.09185267 0.064124405 0.016261803 -0.009796333 0.046781737 0.08351578 0.007648484 0.035201475
-0.034729835 0.05430039 -0.008972293 -0.06461526 0.0017633936 0.04524762 -0.007183629 -0.003135483
-0.004542057 0.07851621 -0.035340853 -0.04465708 -0.038624167 -0.04493535 0.107146986 0.024564171
0.04503065 0.052982125 0.039005857 0.023148617 0.051995385 -0.07177402 0.015380315 -0.057971258
-0.0048113177 -0.075618766 0.022934217 0.11394408 0.10366395 0.06714371 0.08696227 -0.05484467
0.076189496 0.073963724 -0.0019475752 0.036018535 -0.0027870946 0.03869703 0.051924158 0.036656506
0.06412517 -0.06446654 0.033986174 -0.025454301 0.011869946 -0.075276196 -0.051209167 0.07202881
00000000: 6425 e3bc 989c dfbc f0d4 c13d a830 05bd
00000010: d043 273d b3fb be3d f7e7 d33d db61 d83d
00000020: fe01 12bd c6fb 443d 9403 be3c 82f3 fe3c
00000030: 67b0 d33d 95c5 a63d dc9f 80bd 2120 cb3d
00000040: 3a8d c53d a93e 1cbd 4685 65bd 0ea3 ca3d
00000050: 4d4b 0cbb 0c04 7abd 7a1a 8f3d d1e0 033d
00000060: 6433 9e3d 165f 26bd 9c03 f13d 7e0c 12b9
00000070: 6632 0bbd 8a01 873d 657a 0fbd 7e6f 5cbd
00000080: b56b 923c f2f7 213d b0fe 86bc 695d 403c
00000090: 046b 6dbd a8a0 9c3d a521 853c 88fa 363d
000000a0: 337e 8e3d cb5f a23d 9196 c33d 80e0 813d
000000b0: 7850 603d 6c02 34bd 186f bb3d affd 953c
000000c0: f64d 8e3d df48 dc3d e095 19bd 70b9 983c
000000d0: cd22 0abd 806b 793c be9b 4dbb 6da3 34bd
000000e0: d904 21bc f29d 663d 8f1a 1abd 91d5 103c
000000f0: b602 a93d 4bc7 e63d 1b44 66bd 115e bb3d
00000100: 9acd cd3c cdda 683d 7328 a43d 0020 b73d
00000110: 0010 7abc 0e76 ba3d c779 323d 6317 f93c
00000120: fdcc 7f3d aefb 98bd 62bb eabc 2de3 86bd
00000130: a6e8 103d cea4 5b3d 2044 c1bc 3d84 6c3d
00000140: 1080 a03c 1508 78bc 2153 10bd 0a9e 823d
00000150: d0f3 013d b8ce 893d 2874 cf3d ff2a 26bd
00000160: 195d 863c 252c b0b9 ef79 9a3d a2f8 cc3d
00000170: 8a7b c93d 51e3 073d 12c7 183d ea25 7cbc
00000180: 7833 40bd 3d85 75bd a13d 6d3d e84c d2bc
00000190: 6daa b3bc e3fc 483d 0bc4 46bd 6b5a b63d
000001a0: 2d78 a93d 2d72 e03c c478 583d 5c19 b43d
000001b0: 6bcc 8c3d 193a 93bd adfd 733d cb14 88bd
000001c0: e1b7 18bd 2a44 93bd dcb9 7ebc 8d40 503c
000001d0: 9e3b c53c 8564 273d 7458 083d b2d8 68bd
000001e0: b30d 1a3d 5afe 73bc c373 a33d 5259 d13d
000001f0: 3edf 143d b2be 553c 89dd abbc 07af a13d
00000200: 95d2 9e3d cb06 183d 854c 003d 4b5a 2c3c
00000210: 157f b8bc 038b 143c 17eb 47bd 0b80 b13d
00000220: 78a3 1cbd 6ce4 47bd 19a5 163d 9956 deba
00000230: c08f c23b 6f7a cd3d e9b4 6f3d 2368 9f3d
00000240: a3fe 75bc 64bc 72bc 157d 50bd c79b 1b3d
00000250: 307a 9e3d b892 23bd 80bd 9dbc eacf 9b3d
00000260: 130e a6bc 69b8 413d e4d7 bf3d 835c a13d
00000270: 8b39 dfbc 4204 013b a0ac 9f3d b061 da3d
00000280: 2dde 9a3d ae31 01bd cb8e 8f3d 6a3c 15bc
00000290: d85c bb3d cb61 cabc ba35 b83d 7f89 e53d
000002a0: ca14 da3b db25 41bc c7ca 6bbd 9274 803a
000002b0: 3ea9 b3bc 1400 18ba 0b5c 6abd 439d 373d
000002c0: 8219 963d fc85 103d 5c4f 193d 6bc7 8b3d
000002d0: 28ef 463d eb42 e6bc 1cce 493d f5ed 063c
000002e0: d809 79bb f3c4 94bc e774 7a3d 4c0e 56bd
000002f0: 8ca6 69bd a65d 5a3d 2999 84bd 7a78 393d
00000300: 556b 1fbd 457a af3c d96d b0bc 7b51 913d
00000310: b754 f8bb f86c 93bc af30 583d f700 123c
00000320: 411d bc3d a853 833d 7937 853c cc80 20bc
00000330: 359e 3f3d 520a ab3d 22a0 fa3b 6c2f 103d
00000340: df40 0ebd 166a 5e3d 8600 13bc 0155 84bd
00000350: ac21 e73a 9255 393d a664 ebbb ad7c 4dbb
00000360: 89d5 94bb 1bcd a03d 92c1 10bd 58ea 36bd
00000370: 6034 1ebd 210e 38bd e16f db3d cd3a c93c
00000380: 0f72 383d c903 593d 9bc4 1f3d 2ba2 bd3c
00000390: 1df9 543d 42fe 92bd b7fd 7b3c 4573 6dbd
000003a0: 42a8 9dbb 03de 9abd 8ae0 bb3c 845b e93d
000003b0: c44d d43d a482 893d 4619 b23d cea4 60bd
000003c0: 3d09 9c3d 4b7a 973d c845 ffba 2c88 133d
000003d0: b0a7 36bb c780 1e3d 6dae 543d 2225 163d
000003e0: 0f54 833d 0907 84bd 1635 0b3d 8a85 d0bc
000003f0: 297a 423c 682a 9abd b4c0 51bd d783 933d

weight_ih_l1 f4 [512, 128]
-0.04898256 -0.0064695007 -0.00030312804 -0.06393409 -0.08851909 -0.049070686 -0.06806778 -0.042566337
0.07048801 -0.03821198 0.06279422 -0.064979285 0.010605176 -0.034335356 0.067664996 0.020511778
-0.009955479 -0.029045867 0.053843953 -0.0781512 0.04945522 0.08189945 0.0017045767 0.05771672
-0.027188785 0.084107734 -0.014784546 0.025198206 -0.026099633 -0.00812415 -0.09068318 0.04847698
-0.08930309 -0.01777413 0.022400923 0.055384085 -0.035906676 -0.03692631 -0.06368305 -0.089453936
-0.088694446 0.033129796 0.022362066 -0.03434192 0.048337743 0.045849733 -0.06296983 -0.025348067
0.03203862 -0.038930982 0.08845959 -0.038789634 0.060919136 0.07041477 -0.036913358 -0.08338655
0.063644916 -0.017214565 0.06508589 0.020891815 -0.0054717814 0.10521045 -0.025496954 0.01412309
-0.064935066 -0.004618012 0.094460346 0.05076435 -0.031359605 -0.06014305 0.09726532 0.10472252
-0.032537635 0.0033661474 -0.07988704 -0.09351606 -0.010734219 -0.039968003 0.011074122 0.09639159
-0.0104466565 -0.06829541 -0.09004915 -0.0021388058 -0.04141501 0.1106959 0.052888066 0.050415996
0.08771256 -0.012277493 -0.047341265 -0.029092105 -0.061442602 -0.031542584 -0.087550044 0.038710367
-0.07384163 0.007445616 0.044781674 -0.015481928 0.039572593 0.03226848 -0.021616014 0.035536163
0.1028671 0.029331354 -0.051458474 -0.015418813 -0.023397153 -0.028309684 -0.03575897 -0.050004046
0.06819575 -0.033840727 0.0534079 0.019183435 0.051874995 -0.056215525 -0.09266224 -0.082473926
0.026805788 0.048795775 0.015527618 0.053297855 0.068572015 0.01277192 -0.047634397 0.04627306
-0.061145812 0.07413678 0.1081674 0.05745349 -0.077414304 0.094610766 0.12496279 -0.027937913
0.051008277 -0.06199436 -0.0019330161 0.026771182 0.0019841334 -0.07472726 0.08381942 -0.062188555
-0.10861038 -0.057008296 -0.040175714 0.09835049 0.04983926 0.044167466 -0.06974703 -0.029200446
-0.055840325 -0.10949477 -0.07185585 0.021526663 -0.026340574 -0.12062617 -0.04772561 -0.0073171314
-0.07820226 -0.074882165 0.007470773 0.09531082 0.033499476 -0.010430764 0.063264936 0.0778061
-0.0026814537 0.020907065 -0.060972407 0.03771556 -0.052233364 -0.035587717 -0.026869735 -0.010557275
0.05310549 -0.069376074 -0.008678957 0.044814862 0.07790579 0.03063134 0.032210268 -0.027822122
0.022940034 -0.023297878 0.009084344 -0.026464835 -0.052509993 0.05764107 -0.0006098796 -0.074861124
0.032533452 0.07789995 -0.0066711837 -0.08908098 0.049944155 0.091066115 0.009333143 0.019075494
0.0065550003 -0.020794313 -0.040560786 -0.05054565 0.059304424 0.09459126 -0.03995381 0.08300042
0.03679058 0.0063350806 0.016838193 -0.04774366 0.015111529 0.0017319584 0.05557657 -0.089867644
-0.07197752 0.03957089 0.035344098 0.04093821 -0.002106916 0.052985102 -0.020458022 0.0913667
0.01691525 0.079635434 -0.02955949 0.037100535 0.036714014 0.013210485 0.04625374 0.050332516
0.06554273 0.03636276 0.10469557 0.0036225182 0.056477487 0.09297331 -0.059159324 0.010313332
-0.08680882 0.110050775 0.02464564 0.0020758868 0.006201379 0.113639385 -0.029962715 -0.07212874
-0.043372385 0.009313091 0.0051511675 0.08081351 -0.022000935 -0.014512869 -0.100661024 0.076418325
00000000: f0a1 48bd 1bfe d3bb 28ed 9eb9 e0ef 82bd
00000010: 7f49 b5bd 58fe 48bd 1f67 8bbd 0a5a 2ebd
00000020: 055c 903d 2a84 1cbd 429a 803d dc13 85bd
00000030: 55c1 2d3c 3ba3 0cbd f293 8a3d 5108 a83c
00000040: 4e1c 23bc 99f1 edbc 7a8b 5c3d bd0d a0bd
00000050: 8f91 4a3d e6ba a73d 1a6c df3a 5e68 6c3d
00000060: 04bb debc ad40 ac3d e13a 72bc 786c ce3c
00000070: e6ce d5bc 281b 05bc 1ab8 b9bd cc8f 463d
00000080: 8ae4 b6bd 0d9b 91bc 2482 b73c 6cda 623d
00000090: e112 13bd 0b40 17bd 426c 82bd a033 b7bd
000000a0: 6fa5 b5bd 1cb3 073d a730 b73c 1daa 0cbd
000000b0: ccfd 453d eecc 3b3d 54f6 80bd c0a6 cfbc
000000c0: ee3a 033d 1876 1fbd 4d2a b53d e1e1 1ebd
000000d0: 5886 793d 9e35 903d 7632 17bd 91c6 aabd
000000e0: 4458 823d 8f05 8dbc c04b 853d 5025 ab3c
000000f0: a14c b3bb 9478 d73d fdde d0bc 8864 673c
00000100: adfc 84bd b152 97bb 6d74 c13d 47ee 4f3d
00000110: ee72 00bd 8f58 76bd 0a33 c73d c378 d63d
00000120: 2f46 05bd 959a 5c3b d19b a3bd 5985 bfbd
00000130: 94de 2fbc 7db5 23bd 3c70 353c f468 c53d
00000140: 7428 2bbc 77de 8bbd b06b b8bd 352b 0cbb
00000150: c9a2 29bd 88b4 e23d 28a1 583d 0181 4e3d
00000160: a5a2 b33d 8a27 49bc eae8 41bd 9152 eebc
00000170: 3dab 7bbd cc32 01bd 704d b3bd c38e 1e3d
00000180: 483a 97bd 5bfa f33b fd6c 373d eaa7 7dbc
00000190: df16 223d f42b 043d 1114 b1bc 5e8e 113d
000001a0: fcab d23d 4f48 f03c 1fc6 52bd 309f 7cbc
000001b0: 63ab bfbc b6e9 e7bc ff77 12bd 0bd1 4cbd
000001c0: 37aa 8b3d 939c 0abd 3ec2 5a3d 9426 9d3c
000001d0: e07a 543d 4042 66bd b3c5 bdbd 17e8 a8bd
000001e0: d097 db3c 14de 473d 8d67 7e3c da4e 5a3d
000001f0: 7c6f 8c3d 5141 513c 491c 43bd d288 3d3d
00000200: 0874 7abd 06d5 973d df86 dd3d 5a54 6b3d
00000210: 648b 9ebd 4ac3 c13d 7eec ff3d 0dde e4bc
00000220: 0eee 503d cced 7dbd 425d fdba 3d4f db3c
00000230: 3c08 023b 9b0a 99bd 84a9 ab3d 6db9 7ebd
00000240: 1e6f debd 8881 69bd 4a8f 24bd fb6b c93d
00000250: 4024 4c3d f2e8 343d 88d7 8ebd c635 efbc
00000260: d3b8 64bd cb3e e0bd 2929 93bd af58 b03c
00000270: 30c8 d7bc da0a f7bd ee7b 43bd 8cc4 efbb
00000280: 8228 a0bd d25b 99bd 63cd f43b 5232 c33d
00000290: bf36 093d cce5 2abc 0c91 813d ce58 9f3d
000002a0: 54bb 2fbb 4b45 ab3c 34be 79bd a27b 1a3d
000002b0: a7f2 55bd 6dc4 11bd eb1d dcbc 6cf8 2cbc
000002c0: 2485 593d 0b15 8ebd 2f32 0ebc ca8f 373d
000002d0: 128d 9f3d 93ee fa3c eaee 033d 38eb e3bc
000002e0: bdec bb3c 31db bebc 80d6 143c c8cc d8bc
000002f0: b814 57bd 0b19 6c3d 54e0 1fba ca50 99bd
00000300: cc41 053d 028a 9f3d f299 dabb 1770 b6bd
00000310: 3e92 4c3d df80 ba3d 0aea 183c 3644 9c3c
00000320: 54cb d63b d658 aabc 1123 26bd f508 4fbd
00000330: 32e9 723d 10b9 c13d 9ba6 23bd 20fc a93d
00000340: b8b1 163d 8296 cf3b 40f0 893c db8e 43bd
00000350: 5996 773c e102 e33a 42a4 633d 870c b8bd
00000360: f368 93bd 1615 223d f9c4 103d d3ae 273d
00000370: 2f14 0abb e806 593d 9597 a7bc 771e bb3d
00000380: da91 8a3c e717 a33d be26 f2bc bbf6 173d
00000390: 6f61 163d ca70 583c 9074 3d3d 7829 4e3d
000003a0: 443b 863d 1ef1 143d a26a d63d c567 6d3b
000003b0: f054 673d ca68 be3d 0c51 72bd 40f9 283c
000003c0: d3c8 b1bd 4d62 e13d a7e5 c93c 9a0b 083b
000003d0: f034 cb3b c4bb e83d 5e74 f5bc 3cb8 93bd
000003e0: 3ea7 31bd ef95 183c 20cb a83b 8e81 a53d
000003f0: 4e3b b4bc 62c7 6dbc 5e27 cebd 3681 9c3d

weight_hh_l1 f4 [512, 128]
0.08072946 -0.020373344 0.035625536 0.025180884 0.012582289 -0.0773986 0.042948093 0.08107407
0.047619455 0.015272749 -0.070658 0.027217217 -0.09432156 0.022486825 0.034549426 0.07623114
0.09650778 -0.07778372 -0.06800787 0.070402585 0.010926177 0.032505903 -0.10197118 0.056687683
0.02114802 -0.021429421 0.025451872 -0.081815705 -0.023031924 -0.07051113 0.025411693 -0.03748259
-0.0029087702 -0.10094764 -0.008445317 -0.07291264 0.082514614 0.10101073 0.033519745 -0.05405409
-0.009445078 -0.052603517 -0.040613845 -0.018768845 -0.06909519 0.060339417 0.075431444 -0.0132100405
0.041238368 0.091954626 -0.034343757 0.032030813 -0.0540176 0.06267705 0.0772926 0.027556669
0.05917854 0.106038064 0.049821444 -0.044443585 0.06885063 0.041277997 -0.045993514 0.06538564
0.05573326 0.052108184 -0.028077807 -0.05994953 0.03953592 -0.061032105 0.02623397 -0.0024469926
0.027577113 -0.033773977 -0.07212221 0.0062873634 -0.027901774 -0.038877983 0.06794151 -0.022371035
0.053437725 0.017586416 -0.031697795 0.10508368 -0.03679282 0.023501983 -0.015544017 -0.07385668
0.016327359 0.08463133 -0.004421928 0.045891378 -0.060124874 -0.09589438 -0.085743785 -0.009940185
0.04549651 0.0383019 -0.037428644 -0.0017958056 0.04862896 -0.01947858 -0.005220716 -0.010323056
0.08716088 -0.03548654 -0.08521974 0.08347961 -0.014197376 -0.029497856 0.06323728 -0.014775642
0.030019114 0.09451017 0.0030346452 0.037037227 0.07926222 -0.031962413 -0.07352537 0.07656225
-0.095167354 -0.038269933 -0.025837835 -0.07665887 -0.00263349 0.045763545 -0.056347117 0.028099606
-0.01130566 -0.11425214 0.0724246 -0.09328162 -0.020195844 0.028672284 0.026426818 -0.044252105
-0.09441438 0.09444444 0.0065951813 0.09236371 0.059637558 0.05902471 0.059648905 0.03079472
0.008789042 0.059630357 -0.10736517 -0.028979989 -0.079511344 -0.07503379 -0.002820775 -0.03139596
0.058286667 -0.02823155 0.04890468 -0.099703506 0.111705616 0.092193685 -0.072346166 -0.061192546
0.019718662 -0.08464505 -0.07162911 0.00953233 0.117553614 -0.07190551 -0.07303684 0.0144483
0.0346927 0.035726693 0.05314973 0.05209166 -0.016223622 0.07782999 0.072389975 0.024219727
-0.049489208 0.032469098 -0.044483382 0.05253753 0.021743122 -0.061861407 0.001844621 0.03581585
0.07676898 -0.049437884 0.0560721 0.014081349 -0.034636945 -0.013227008 -0.11107501 0.010536465
-0.055497263 -0.042229578 0.12997347 -0.015019242 -0.086693086 0.04954978 -0.029428951 -0.0081206225
0.06406382 -0.04237871 0.044399764 -0.002747278 0.055571165 0.07087237 -0.0434591 -0.06582913
-0.062032 -0.015673935 -0.11414866 0.08159876 -0.070785165 0.02249821 0.0620125 -0.01281198
0.058233853 0.036699783 -0.019334262 0.1142697 -0.09978804 0.016601304 0.025833866 0.017326452
-0.009941408 0.076393895 0.04931928 0.023588702 -0.005205716 -0.03557391 -0.033903465 -0.029576013
0.038486943 -0.057826605 -0.0027549693 0.026964886 -0.0013523551 -0.048961163 0.00265192 -0.06711503
-0.04325316 0.015729647 -0.048165195 0.030403456 -0.042482074 0.019741528 -0.05716334 -0.049261257
-0.13002563 -0.03320839 -0.09435831 0.053828306 0.05537524 -0.0015859558 -0.0005610925 -0.029139789
00000000: 7d55 a53d 00e6 a6bc 15ec 113d 2448 ce3c
00000010: f225 4e3c 2883 9ebd 57ea 2f3d 290a a63d
00000020: 9e0c 433d 8d3a 7a3c 24b5 90bd a4f6 de3c
00000030: a92b c1bd 4a36 b83c b383 0d3d 121f 9c3d
00000040: dfa5 c53d 124d 9fbd b647 8bbd 3b2f 903d
00000050: b503 333c e924 053d 44d6 d0bd 5831 683d
00000060: 9d3e ad3c c18c afbc 7280 d03c fe8e a7bd
00000070: 72ad bcbc 2468 90bd 2f2c d03c 5887 19bd
00000080: 11a1 3ebb a3bd cebd 3a5e 0abc 3953 95bd
00000090: 6cfd a83d b7de ce3d 004c 093d d267 5dbd
000000a0: 87bf 1abc c976 57bd b45a 26bd 1fc1 99bc
000000b0: c781 8dbd 7726 773d cd7b 9a3d ed6e 58bc
000000c0: 90e9 283d b552 bc3d 0aac 0cbd be32 033d
000000d0: 8f41 5dbd d35c 803d 954b 9e3d 86be e13c
000000e0: 3265 723d 7c2a d93d 9211 4c3d 7a0a 36bd
000000f0: 8f01 8d3d 1e13 293d b263 3cbd e8e8 853d
00000100: 8f48 643d 646f 553d 6e03 e6bc a38d 75bd
00000110: 6bf0 213d cdfc 79bd 9fe8 d63c b95d 20bb
00000120: 66e9 e13c 9556 0abd cfb4 93bd 3a06 ce3b
00000130: 4392 e4bc 853e 1fbd eb24 8b3d 7643 b7bc
00000140: 84e1 5a3d 6311 903c 8cd5 01bd 1d36 d73d
00000150: 11b4 16bd 3b87 c03c 55ac 7ebc 2c42 97bd
00000160: f4c0 853c 3153 ad3d d2e5 90bb 99f8 3b3d
00000170: 8045 76bd 4664 c4bd 709a afbd 28dc 22bc
00000180: 8c5a 3a3d 74e2 1c3d c74e 19bd 3d61 ebba
00000190: 292f 473d 8b91 9fbc 8a12 abbb 0922 29bc
000001a0: 6781 b23d 565a 11bd b087 aebd 5cf7 aa3d
000001b0: 1c9c 68bc 7da5 f1bc 8c82 813d 8915 72bc
000001c0: a5ea f53c 8c8e c13d e6e0 463b 59b4 173d
000001d0: 3b54 a23d 05eb 02bd 7894 96bd abcc 9c3d
000001e0: 1ae7 c2bd efc0 1cbd dea9 d3bc 53ff 9cbd
000001f0: a196 2cbb 8e72 3b3d 3ccc 66bd 2531 e63c
00000200: 603b 39bc 07fd e9bd 5953 943d 6f0a bfbd
00000210: c171 a5bc 23e2 ea3c 0e7d d83c b241 35bd
00000220: 545c c1bd 166c c13d 641c d83b 2f29 bd3d
00000230: 8346 743d e5c3 713d 6952 743d 3545 fc3c
00000240: eaff 0f3c f63e 743d 45e2 dbbd 7167 edbc
00000250: d8d6 a2bd 51ab 99bd c0dc 38bb 0d99 00bd
00000260: 00be 6e3d da45 e7bc 4650 483d 5a31 ccbd
00000270: eac5 e43d 0bd0 bc3d 3a2a 94bd 09a5 7abd
00000280: 0889 a13c 625a adbd 48b2 92bd 7d2d 1c3c
00000290: f3bf f03d 3243 93bd 5794 95bd 90b8 6c3c
000002a0: ef19 0e3d 2756 123d 88b3 593d 115e 553d
000002b0: 67e7 84bc 5465 9f3d 3241 943d 7368 c63c
000002c0: 32b5 4abd 51fe 043d 3534 36bd 9831 573d
000002d0: a21e b23c 6362 7dbd 36c7 f13a a4b3 123d
000002e0: 0e39 9d3d 617f 4abd dcab 653d 75b5 663c
000002f0: 78df 0dbd 18b6 58bc 4b7b e3bd 23a1 2c3c
00000300: 1951 63bd ecf8 2cbd c417 053e 4413 76bc
00000310: 258c b1bd b6f4 4a3d fc14 f1bc 5c0c 05bc
00000320: e433 833d 4c95 2dbd 87dc 353d ad0b 34bb
00000330: 979e 633d 8825 913d 2b02 32bd 6cd1 86bd
00000340: 4415 7ebd a066 80bc c6c6 e9bd 401d a73d
00000350: d0f7 90bd 2b4e b83c d200 7e3d 57e9 51bc
00000360: 9f86 6e3d 8352 163d e362 9ebc 3c06 ea3d
00000370: ac5d ccbd 75ff 873c 8ba1 d33c 34f0 8d3c
00000380: 4ae1 22bc 6774 9c3d 0303 4a3d 183d c13c
00000390: b694 aabb f3b5 11bd 5cde 0abd 6549 f2bc
000003a0: 7ca4 1d3d 97db 6cbd b78c 34bb 77e5 dc3c
000003b0: 8241 b1ba 808b 48bd d6cb 2d3b 9b73 89bd
000003c0: 3a2a 31bd 76db 803c de48 45bd ab10 f93c
000003d0: af01 2ebd fcb8 a13c 1b24 6abd 2cc6 49bd
000003e0: 7025 05be 8505 08bd ee3e c1bd 127b 5c3d
000003f0: 26d1 623d d9df cfba 4816 13ba 91b6 eebc

bias_ih_l1 f4 [512]
0.018232292 -0.049917433 -0.076604955 0.035071075 0.08226067 0.040961996 0.07202872 -0.0643426
-0.0005815937 0.05561645 0.12256944 -0.031270143 0.079380214 0.10463112 -0.031711016 -0.008430054
-0.028098306 0.015181203 -0.062900454 -0.024987567 0.10400788 0.0030118278 0.03850729 0.079979084
0.07843969 -0.02398256 -0.010070198 0.027073422 0.10452404 0.08740575 0.053053565 -0.053205784
0.011710675 0.107800916 -0.029764863 -0.061321314 0.06544118 -0.079203665 0.010060663 -0.044345967
0.017330395 0.045587156 0.03444509 -0.059594925 0.04084438 0.0990644 0.023972828 0.076959886
-0.031128287 0.059169386 0.036664054 0.08070757 0.07499702 -0.056157835 0.09021295 0.046196867
0.01588157 0.016290326 -0.02956042 0.027953424 0.02857534 0.076825365 0.06625984 -0.012904312
-0.036287654 0.0011230072 0.06604676 0.08989576 -0.035270102 -0.0076412335 0.004463067 0.078191064
0.008254436 -0.050560206 0.013664987 -0.03065873 -0.011838804 -0.059084017 -0.04453484 -0.030985067
0.030001285 0.09607514 0.061486226 -0.050136417 0.06822017 -0.06888125 0.08007555 0.02433688
0.032572985 0.052126784 -0.055187434 0.07503204 0.014302743 -0.010269518 0.020508597 0.037615024
0.065130256 -0.005600815 0.036993705 0.10242006 0.087795556 -0.033896107 -0.039173074 -0.0486352
-0.06664213 -0.01821286 -0.061942738 0.09303474 -0.05686942 0.016973058 0.049332775 -0.049290713
0.07900457 0.04347302 0.08044595 0.010284017 -0.015491583 0.010372241 0.0672156 -0.071075074
0.062790416 -0.059425484 -0.055174116 -0.054264612 0.06957887 -0.021375962 0.053257566 0.012713431
0.020463614 -0.019269146 -0.021289269 0.09080052 -0.05354943 0.08934082 -0.047238275 -0.0029927304
-0.05583541 0.055084337 -0.050462622 0.028154425 -0.077881105 0.014090032 0.05302579 0.03276514
-0.06518025 -0.0064914795 0.08876326 0.06361502 -0.036635898 -0.002960603 -0.07782868 0.105427854
-0.020814551 -0.03765278 -0.07288248 0.09270569 -0.017531468 -0.040113237 -0.029368233 0.012472001
-0.042663485 0.004378979 -0.06467756 -0.008072171 -0.051785152 -0.06617316 0.08166427 -0.079389825
0.0010152272 -0.025177136 -0.06581789 0.078782596 0.044016927 -0.0043240837 -0.024866145 -0.041769553
0.08891749 0.06721004 -0.05195271 0.044087972 -0.06361786 -0.016503688 -0.047064543 0.07879712
0.0007756565 0.030044757 0.008954487 -0.00071184925 0.07544494 -0.05965805 0.016973317 0.006521784
0.018376052 0.03887392 0.083111644 -0.0850267 0.05320709 -0.044516705 0.017016862 -0.009307921
0.0064940746 -0.055507716 0.022102993 0.016433535 -6.064563e-05 0.05112458 0.02444738 -0.05217683
-0.021963663 -0.05194904 -0.054521054 0.05338612 0.06614135 0.0010898594 -0.082601696 0.0651695
-0.08855991 -0.062896304 0.07875844 -0.029610686 -0.034769833 -0.001444148 0.017756589 0.026704697
-0.025093697 0.0851645 0.024634734 0.06872961 0.036200844 0.074407995 -0.030912228 -0.07491267
0.07346271 0.04425255 -0.06669592 -0.02836676 0.045359574 -0.019893765 0.07183509 0.069799945
-0.033901546 0.06621596 0.0126651935 -0.049307372 0.072831035 -0.021760229 -0.009503909 -0.0064290185
-0.06956946 0.0029062112 0.014713906 -0.08221632 0.050623886 -0.03435557 0.03348731 -0.06882895
00000000: e35b 953c 3976 4cbd 0fe3 9cbd b0a6 0f3d
00000010: 4878 a83d c4c7 273d cb83 933d 0ec6 83bd
00000020: 1876 18ba 13ce 633d b005 fb3d 1f15 00bd
00000030: 1892 a23d d748 d63d 69e3 01bd 361e 0abc
00000040: 6b2e e6bc 95ba 783c f4d1 80bd bab2 ccbc
00000050: 1502 d53d 1662 453b d2b9 1d3d 13cc a33d
00000060: fda4 a03d 1377 c4bc 79fd 24bc 15c9 dd3c
00000070: b310 d63d c901 b33d b24e 593d 4fee 59bd
00000080: 22de 3f3c bac6 dc3d 71d5 f3bc 0f2c 7bbd
00000090: 0606 863d 8835 a2bd 7bd5 243c 1ea4 35bd
000000a0: 79f8 8d3c 99b9 3a3d 4b16 0d3d cf19 74bd
000000b0: 704c 273d 47e2 ca3d aa62 c43c 259d 9d3d
000000c0: c000 ffbc 995b 723d 0c2d 163d 034a a53d
000000d0: 0a98 993d c205 66bd 91c1 b83d ed38 3d3d
000000e0: 111a 823c 4a73 853c b228 f2bc 94fe e43c
000000f0: d516 ea3c 9e56 9d3d 3db3 873d 9c6c 53bc
00000100: 5da2 14bd de31 933a 8643 873d 451b b83d
00000110: 6277 10bd 5063 fabb eb3e 923b a322 a03d
00000120: 9d3d 073c 3818 4fbd 1ce3 5f3c 0428 fbbc
00000130: 8bf7 41bc 1502 72bd 2a6a 36bd 65d4 fdbc
00000140: 41c5 f53c 0bc3 c43d fbd8 7b3d d85b 4dbd
00000150: 04b7 8b3d 9d11 8dbd a6fe a33d 235e c73c
00000160: 406b 053d e582 553d 380c 62bd 66aa 993d
00000170: 0d56 6a3c 7b41 28bc a501 a83c 3612 1a3d
00000180: 0363 853d 0b87 b7bb b686 173d 9cc1 d13d
00000190: 28ce b33d a5d6 0abd f273 20bd b435 47bd
000001a0: ab7b 88bd 2333 95bc abb7 7dbd ff88 be3d
000001b0: e9ef 68bd 150b 8b3c 2a11 4a3d 0fe5 49bd
000001c0: 26cd a13d c410 323d d9c0 a43d 4b7e 283c
000001d0: 69d0 7dbc 55f0 293c 55a8 893d cf8f 91bd
000001e0: 4398 803d 2368 73bd 41fe 61bd 9244 5ebd
000001f0: 5e7f 8e3d a41c afbc 9b24 5a3d ff4b 503c
00000200: 4fa3 a73c 54da 9dbc d566 aebc 9ff5 b93d
00000210: a656 5bbd 52f8 b63d ec7c 41bd af21 44bb
00000220: acb3 64bd 1da0 613d e5b1 4ebd 1ca4 e63c
00000230: 2180 9fbd e1d9 663c 9231 593d bd34 063d
00000240: 397d 85bd 7ab6 d4bb 83c9 b53d 9748 823d
00000250: 860f 16bd ad06 42bb a564 9fbd 8fea d73d
00000260: 4783 aabc cd39 1abd 6943 95bd 7bdc bd3d
00000270: 279e 8fbc c74d 24bd a695 f0bc 5d57 4c3c
00000280: e8bf 2ebd 8a7d 8f3b ab75 84bd 2441 04bc
00000290: ab1c 54bd cb85 87bd 993f a73d 2297 a2bd
000002a0: 5f11 853a 4840 cebc 88cb 86bd c558 a13d
000002b0: 184b 343d 0bb1 8dbb 16b4 cbbc 8d16 2bbd
000002c0: 5f1a b63d 6ba5 893d 5dcc 54bd 9795 343d
000002d0: 154a 82bd be32 87bc c0c6 40bd 6260 a13d
000002e0: 6d55 4b3a 6c20 f63c d7b5 123c 659b 3aba
000002f0: e082 9a3d 005c 74bd a00b 8b3c b0b4 d53b
00000300: 6089 963c 423a 1f3d 7036 aa3d 7a22 aebd
00000310: adef 593d 2657 36bd f266 8b3c 4080 18bc
00000320: 3fcc d43b 0f5c 63bd 5611 b53c 9f9f 863c
00000330: c05d 7eb8 0268 513d df45 c83c 5fb7 55bd
00000340: 24ed b3bc 84c8 54bd 7851 5fbd 67ab 5a3d
00000350: 1e75 873d 9dd9 8e3a 142b a9bd 9677 853d
00000360: e65e b5bd c7cf 80bd 1b4c a13d 1c92 f2bc
00000370: d06a 0ebd 9149 bdba 4476 913c cfc3 da3c
00000380: 4c91 cdbc ba6a ae3d c8ce c93c 1cc2 8c3d
00000390: 5647 143d 3863 983d a43b fdbc d06b 99bd
000003a0: 9e73 963d 2942 353d df97 88bd 6861 e8bc
000003b0: f6ca 393d 40f8 a2bc 471e 933d 46f3 8e3d
000003c0: 59dc 0abd 3c9c 873d ac81 4f3c 87f6 49bd
000003d0: 7028 953d 8242 b2bc 49b6 1bbc 84aa d2bb
000003e0: 6f7a 8ebd 2276 3e3b 9812 713c 0861 a8bd
000003f0: fe5a 4f3d 6db8 0cbd fd29 093d 31f6 8cbd
